model_params.pth (torch, 117967 bytes, 165 tensors)

cnn_head.0.weight f4 [16, 1, 5, 5]
-0.10172129 -0.09490747 -0.08440193 -0.05081053 0.011076333 -0.06883448 -0.027089762 -0.0004514665
0.00028036878 0.017835658 0.018718906 0.024444135 0.044942144 0.019483445 -0.03122687 0.059115164
0.07216317 0.026670314 -0.0006842538 -0.1487582 0.044114135 -0.017647294 -0.023819614 -0.03497138
-0.1321631 0.122805335 -0.09107039 -0.07839565 -0.06559304 -0.31876254 0.15765364 -0.11242555
-0.13867211 -0.043542523 -0.40391284 0.4286196 0.121333145 0.0072800266 0.034563035 -0.43925777
0.59902394 0.2948726 0.12478676 0.09752534 -0.43595597 0.4762063 0.34755474 0.2568127
0.026914204 -0.29285723 -0.00065393216 0.04774101 0.045562085 -0.101182625 -0.16579677 0.12355118
0.09899126 0.1115396 -0.028988678 0.009532756 0.07726144 0.04312836 0.030858712 -0.028816031
-0.08949069 0.014265342 0.005629054 0.035708435 -0.06274606 -0.08723761 -0.06062555 -0.006356733
-0.0075697503 -0.07598663 -0.14002232 -0.010953551 0.12219553 0.015832283 -0.13000153 -0.0050807274
-0.41525638 -0.112568274 -0.08257183 0.006074532 0.05982275 -0.36517322 0.041276608 0.23207437
0.11507047 0.074517995 0.24054316 0.5883018 0.5368254 0.22978385 -0.24934538 -0.12857682
0.09075399 0.07244 -0.21578892 -0.58719784 0.10347367 0.06014829 0.05581587 -0.056027632
-0.10357374 0.18395232 0.15089484 -0.0071922294 0.00034396042 -0.0037820362 0.07709961 0.10945076
-0.0037773962 0.02493415 -0.014958787 -0.020341353 0.02543884 0.007243282 -0.016659504 0.029431881
-0.07838544 -0.031546716 0.0030705123 -0.0111600915 0.0004047442 -0.11626287 -0.0809953 -0.022653557
-0.03390774 -0.02158552 -0.19836882 -0.03574488 0.08226099 0.13117772 0.22342001 -0.12796776
0.10981456 0.23684023 0.297531 0.31725693 -0.03426118 0.12859423 0.1819114 0.12625462
0.015730374 -0.013872587 0.1012609 0.17499903 0.038515143 -0.27062812 -0.1531936 -0.042013615
0.026370557 -0.0068133506 -0.05781327 -0.10563711 0.031924903 0.018724037 -0.0059609176 0.0069452194
-0.040702075 -0.0029347138 0.036159504 -0.06115781 0.007340128 -0.00645805 0.054425534 0.06768082
0.054944776 0.00031112085 -0.08099523 -0.028084407 0.038593367 -0.037450407 -0.00853784 -0.05766725
0.06081894 0.2300524 0.22873037 0.10401564 -0.19357415 -0.0023411647 0.1992447 0.2823012
0.21439454 -0.08361708 -0.042455576 0.023967845 0.082193 0.21407434 0.12580408 0.019895835
-0.13080381 -0.14562966 -0.04788551 0.010890582 -0.08519266 -0.18524289 -0.28380936 -0.39659825
0.08303798 -0.026363224 0.049115237 0.016901439 -0.016049758 0.017145498 -0.0619082 -0.03217782
-0.017397396 0.0016164915 -0.00087614445 -0.09422673 -0.0312644 -0.010116953 -0.013874649 -0.007112982
-0.060077958 0.014029875 0.012519074 -0.022169761 0.052810427 -0.0674851 -0.014247863 -0.024074227
0.060690094 0.23284198 0.2756846 0.251284 0.14565518 -0.11683827 0.046107274 0.079903275
0.20640178 0.21407558 0.09455488 -0.024476409 -0.057860456 0.0032731232 0.084599406 0.3548723
-0.16196771 -0.20637043 -0.22739358 -0.1268069 0.21428396 -0.040733527 -0.107587285 -0.19476905
-0.20598693 0.111462526 0.58744395 0.12275456 0.115158275 -0.035866763 -0.41998783 0.84476376
00000000: 4053 d0bd d95e c2bd ebda acbd b41e 50bd
00000010: 8279 353c 18f9 8cbd 59eb ddbc cfb2 ecb9
00000020: 76fe 9239 161c 923c 6458 993c 113f c83c
00000030: 4115 383d bf9b 9f3c 7ecf ffbc be22 723d
00000040: 49ca 933d b47b da3c 7f5f 33ba 1254 18be
00000050: 06b1 343d 0f91 90bc 5a21 c3bc 263e 0fbd
00000060: c455 07be 5d81 fb3d 1d83 babd e68d a0bd
00000070: a555 86bd d834 a3be f56f 213e 5e3f e6bd
00000080: 1000 0ebe a559 32bd aacd cebe 0774 db3e
00000090: 837d f83d 4a8d ee3b f891 0d3d 65e6 e0be
000000a0: a259 193f 8bf9 963e 3390 ff3d 5ebb c73d
000000b0: 9f35 dfbe 50d1 f33e b2f2 b13e f47c 833e
000000c0: 2d7b dc3c 62f1 95be a56c 2bba 148c 433d
000000d0: 4f9f 3a3d d638 cfbd a1c6 29be 6708 fd3d
000000e0: eebb ca3d e06e e43d aa79 edbc 472f 1c3c
000000f0: 3f3b 9e3d 5da7 303d 69cb fc3c 990f ecbc
00000100: e546 b7bd 2eb9 693c ed73 b83b 0243 123d
00000110: 0281 80bd a2a9 b2bd 7f52 78bd 244c d0bb
00000120: ab0b f8bb e19e 9bbd 0362 0fbe 8676 33bc
00000130: a641 fa3d b4b2 813c 1f1f 05be 3b7c a6bb
00000140: 7c9c d4be 328a e6bd 6b1b a9bd de0c c73b
00000150: b308 753d fcf7 babe a911 293d e7a4 6d3e
00000160: 11aa eb3d e49c 983d f250 763e f29a 163f
00000170: 646d 093f 754c 6b3e 6554 7fbe a4a9 03be
00000180: 3add b93d 6c5b 943d c5f7 5cbe 9952 16bf
00000190: 01ea d33d 0e5e 763d 2f9f 643d 3b7d 65bd
000001a0: 781e d4bd ff5d 3c3e 2d84 1a3e cbac ebbb
000001b0: 9655 b439 0adc 77bb 66e6 9d3d b827 e03d
000001c0: 318e 77bb b442 cc3c b315 75bc e9a2 a6bc
000001d0: 1d65 d03c 0e59 ed3b 8379 88bc 211b f13c
000001e0: 8c88 a0bd 2137 01bd a63a 493b d1d8 36bc
000001f0: d933 d439 3a1b eebd dde0 a5bd f493 b9bc
00000200: d8e2 0abd 1ed4 b0bc 3221 4bbe 3969 12bd
00000210: 7378 a83d 7453 063e 37c8 643e fb09 03be
00000220: 75e6 e03d 3f86 723e fc55 983e 806f a23e
00000230: 7355 0cbd 35ae 033e fb46 3a3e e448 013e
00000240: fcdc 803c d949 63bc e061 cf3d f232 333e
00000250: 0ec2 1d3d c58f 8abe c8de 1cbe 7816 2cbd
00000260: 1107 d83c 8742 dfbb 9bcd 6cbd 4558 d8bd
00000270: b0c3 023d 2763 993c cd53 c3bb b994 e33b
00000280: 38b7 26bd 5454 40bb fd1b 143d 9d80 7abd
00000290: 7585 f03b 0d9e d3bb 4fed 5e3d 3e9c 8a3d
000002a0: c60d 613d ef1d a339 d4e0 a5bd 4511 e6bc
000002b0: 1414 1e3d 9965 19bd 4ce2 0bbc 7f34 6cbd
000002c0: 481d 793d db92 6b3e 4b38 6a3e 2706 d53d
000002d0: 4d38 46be 3a6e 19bb cd06 4c3e c889 903e
000002e0: 3e8a 5b3e 6e3f abbd e6e5 2dbd 3758 c43c
000002f0: ce54 a83d 4e36 5b3e c9d2 003e 97fc a23c
00000300: 6ff1 05be f11f 15be 9923 44bd 696e 323c
00000310: 7d79 aebd 50b0 3dbe 764f 91be ed0e cbbe
00000320: d10f aa3d b0f7 d7bc 0f2d 493d e374 8a3c
00000330: c87a 83bc b774 8c3c 7493 7dbd e4cc 03bd
00000340: fc84 8ebc 74e0 d33a 0fad 65ba f2f9 c0bd
00000350: 190f 00bd 94c1 25bc 7f52 63bc 0514 e9bb
00000360: 4e14 76bd 90dd 653c cd1c 4d3c 5c9d b5bc
00000370: bf4f 583d a135 8abd de6f 69bc 5037 c5bc
00000380: 2d96 783d 216e 6e3e 8826 8d3e 4ca8 803e
00000390: a226 153e e748 efbd fbda 3c3d 54a4 a33d
000003a0: fd5a 533e a136 5b3e fda5 c13d c082 c8bc
000003b0: 16ff 6cbd e581 563b 7442 ad3d d2b1 b53e
000003c0: ddda 25be c552 53be ddd9 68be abd9 01be
000003d0: 416d 5b3e 33d8 26bd b956 dcbd 8a71 47be
000003e0: 3dee 52be 7746 e43d ba62 163f be66 fb3d
000003f0: 1ad8 eb3d 07e9 12bd a508 d7be 7042 583f

cnn_head.1.weight f4 [16]
0.18529178 0.6074701 0.34246305 0.42035282 0.27165172 0.4426339 0.27452964 0.31675088
0.22951882 0.3529264 0.5985421 0.4724628 0.36277446 0.27260527 0.3838644 0.41725323
00000000: 21bd 3d3e 2983 1b3f 5157 af3e 7c38 d73e
00000010: ef15 8b3e e9a0 e23e 268f 8c3e 2c2d a23e
00000020: fb06 6b3e c5b2 b43e 0e3a 193f a5e6 f13e
00000030: 93bd b93e eb92 8b3e e089 c43e 37a2 d53e

cnn_head.1.bias f4 [16]
-0.117329895 0.072642855 -0.11450353 -0.25625566 -0.28376547 0.115092054 -0.11173043 -0.03099348
-0.014550057 0.1595594 0.5325542 -0.10852913 -0.12005046 -0.13236038 -0.22685722 -0.18193404
00000000: a84a f0bd c7c5 943d d480 eabd f133 83be
00000010: b549 91be 62b5 eb3d ecd2 e4bd 0ae6 fdbc
00000020: 5d63 6ebc 8a63 233e 7955 083f 8544 debd
00000030: 04dd f5bd 7b89 07be 424d 68be eb4c 3abe

cnn_head.1.running_mean f4 [16]
1.8020366 -2.897188 0.81585705 -0.9636419 -1.8975122 -5.022668 1.0631495 -0.48731157
0.80056185 -3.1031058 -0.898791 -2.2774763 1.2232515 2.6683235 -3.082226 -0.19130161
00000000: 23a9 e63f 876b 39c0 02dc 503f 3cb1 76bf
00000010: aee1 f2bf b2b9 a0c0 4815 883f e780 f9be
00000020: 9ff1 4c3f 4999 46c0 2b17 66bf 2cc2 11c0
00000030: 8193 9c3f d0c5 2a40 3143 45c0 92e4 43be

cnn_head.1.running_var f4 [16]
3.6039793 29.134796 1.8322685 5.9193597 4.3841577 26.72055 1.454204 6.502419
0.7202164 16.241007 42.48981 11.522369 2.179983 7.534726 10.696685 8.2513895
00000000: 99a7 6640 1014 e941 c687 ea3f 656b bd40
00000010: 054b 8c40 b0c3 d541 5b23 ba3f d113 d040
00000020: 1a60 383f 95ed 8141 91f5 2942 a05b 3841
00000030: d784 0b40 7a1c f140 9f25 2b41 b105 0441

BCBlocks.0.0.f2.0.block.0.weight f4 [8, 16, 1, 1]
-0.070680976 -0.50078225 -0.1671663 -0.16037752 -0.006426778 0.35165042 -0.08392303 0.24935938
-0.08846105 0.3307769 -0.5213588 0.07706067 -0.28711575 0.035312932 0.18020417 -0.07693969
-0.09090579 -0.22500272 -0.01753468 -0.19239016 -0.07707694 -0.08294679 -0.04344795 0.25599933
-0.0894199 0.26446432 -0.54284626 0.47441947 -0.121304184 -0.11144767 0.043882508 -0.07196115
-0.045260113 0.38830084 -0.01062827 -0.08583509 -0.053281628 -0.010594289 -0.009966666 -0.115839034
-0.041420385 -0.1807245 0.19875215 -0.06685182 0.014340094 -0.0027488219 0.06871177 -0.27402294
-0.071213566 0.29508552 -0.15295924 -0.0061766766 0.08318677 -0.088405475 -0.14009024 -0.033020027
-0.08472983 0.022473548 0.35548082 -0.37349427 -0.07290412 0.08021898 -0.014185776 -0.25662896
-0.105188556 0.27667904 -0.011540637 0.050746247 0.030590113 -0.27542478 -0.12506455 -0.09294558
-0.018193763 -0.35025075 0.25655347 -0.035868354 -0.026905894 -0.114400096 0.053003326 -0.04723496
0.046850502 0.13357262 -0.25586975 0.4460988 -0.33162478 0.5052919 -0.10549615 0.13543953
-0.15378357 -0.27170566 -0.1922761 0.09797153 -0.19110075 -0.31509367 0.49147603 0.3485231
-0.014017343 -0.09116318 0.030362377 -0.08097133 0.06997822 0.0040116566 0.12550788 -0.045965515
-0.006802003 -0.0036550213 -0.17554186 -0.07591305 -0.012630447 0.025688905 -0.01756241 -0.09946171
-0.033672445 -0.15795279 0.06017921 0.19492146 0.038528644 0.014860953 0.060105328 -0.16088168
0.054502793 -0.1196106 -0.3108808 -0.27480808 0.0287036 -0.061322942 -0.18203534 0.017588362
00000000: 30c1 90bd 4433 00bf a42d 2bbe 013a 24be
00000010: b997 d2bb 860b b43e d6df abbd 1158 7f3e
00000020: 112b b5bd 975b a93e c577 05bf fcd1 9d3d
00000030: d600 93be 4ba4 103d 7187 383e 8e92 9dbd
00000040: d12c babd 1d67 66be e4a4 8fbc ed01 45be
00000050: 84da 9dbd 02e0 a9bd 7af6 31bd 5812 833e
00000060: c821 b7bd de67 873e f9f7 0abf 1ce7 f23e
00000070: 546e f8bd ad3e e4bd 25be 333d 5e60 93bd
00000080: ab62 39bd 5ecf c63e 3222 2ebc 4fca afbd
00000090: d63d 5abd ab93 2dbc 3a4b 23bc 043d edbd
000000a0: 6ca8 29bd d80f 39be af85 4b3e 9be9 88bd
000000b0: b7f2 6a3c 9425 34bb c2b8 8c3d bc4c 8cbe
000000c0: 6bd8 91bd 7315 973e 59a1 1cbe b865 cabb
000000d0: d35d aa3d ee0d b5bd d173 0fbe 0240 07bd
000000e0: d586 adbd 721a b83c 9501 b63e a43a bfbe
000000f0: c14e 95bd d949 a43d 756b 68bc df64 83be
00000100: 196d d7bd e0a8 8d3e f114 3dbc 4cdb 4f3d
00000110: 1e98 fa3c 7a04 8dbe ec10 00be 415a bebd
00000120: 160b 95bc 1154 b3be fa5a 833e b2ea 12bd
00000130: c069 dcbc 994a eabd 041a 593d 7279 41bd
00000140: 50e6 3f3d 43c7 083e 5c01 83be 1067 e43e
00000150: b9ca a9be cf5a 013f 5e0e d8bd a9b0 0a3e
00000160: 7179 1dbe 011d 8bbe 07e4 44be 4ca5 c83d
00000170: eaaf 43be f553 a1be bfa2 fb3e 9f71 b23e
00000180: ffa8 65bc c3b3 babd 85ba f83c 4cd4 a5bd
00000190: be50 8f3d 3774 833b 2385 003e 5646 3cbd
000001a0: 56e3 debb 1589 6fbb 3fc1 33be 4d78 9bbd
000001b0: efef 4ebc 8a71 d23c 0bdf 8fbc 95b2 cbbd
000001c0: 1eec 09bd 60be 21be 7a7e 763d 7e99 473e
000001d0: 36d0 1d3d 5b7b 733c 0131 763d 2bbe 24be
000001e0: 523e 5f3d 67f6 f4bd c52b 9fbe a5b3 8cbe
000001f0: d023 eb3c c42d 7bbd 7967 3abe 7815 903c

BCBlocks.0.0.f2.0.block.1.weight f4 [8]
0.20661154 0.22633617 0.2979645 0.36332572 0.18591207 0.18637142 0.036450442 0.1977284
00000000: fa91 533e abc4 673e ce8e 983e d405 ba3e
00000010: bc5f 3e3e 26d8 3e3e 0f4d 153d 5079 4a3e

BCBlocks.0.0.f2.0.block.1.bias f4 [8]
0.2550269 0.3666772 -0.07451113 -0.03989122 0.3576496 0.35822216 -0.28548855 0.32889888
00000000: e392 823e 1dbd bb3e 4b99 98bd fa64 23bd
00000010: d91d b73e e568 b73e 8e2b 92be 6f65 a83e

BCBlocks.0.0.f2.0.block.1.running_mean f4 [8]
-0.29518047 -0.298379 0.12784187 0.16907552 0.040340062 -0.0022893904 -0.14144485 -0.2886883
00000000: e521 97be 22c5 98be fbe8 023e 2222 2d3e
00000010: 9f3b 253d 9909 16bb ebd6 10be f4ce 93be

BCBlocks.0.0.f2.0.block.1.running_var f4 [8]
0.20579828 0.14558648 0.046808984 0.06808511 0.052706286 0.09537741 0.013583833 0.040562086
00000000: c9bc 523e 9f14 153e c7ba 3f3d 3570 8b3d
00000010: 8ce2 573d 3b55 c33d ba8e 5e3c 6e24 263d

BCBlocks.0.0.f2.1.block.0.weight f4 [8, 1, 3, 1]
0.29770952 0.5216444 -0.018374328 -0.7574362 0.59101814 0.3137601 0.07571835 0.26947504
0.17358896 -0.13295141 -0.0023480216 0.43784738 0.3123211 0.020586306 -0.56404215 0.5342849
0.48216757 -0.23478074 -0.043076675 -0.09371954 -0.11954766 -0.09416325 -0.19436558 -0.22965479
00000000: 626d 983e 7d8a 053f c285 96bc 57e7 41bf
00000010: f74c 173f 2aa5 a03e 3912 9b3d a2f8 893e
00000020: 4ec1 313e 6a24 08be 44e1 19bb 882d e03e
00000030: 8de8 9f3e 9da4 a83c 1165 10bf e5c6 083f
00000040: abde f63e 5d6a 70be 2b71 30bd 08f0 bfbd
00000050: 67d5 f4bd a9d8 c0bd c507 47be a02a 6bbe

BCBlocks.0.0.f2.1.block.1.ssnorm.weight f4 [40]
0.5261296 0.56968683 0.3196683 0.2912159 0.3729022 0.17581783 0.5778909 0.46981636
0.2425408 0.17264645 0.22926581 0.5127634 -0.027381664 -0.07641064 0.12649603 0.42830476
0.23018746 0.100530274 0.17648917 0.15715577 0.24153216 0.18576074 0.28681594 0.2431443
0.1355873 0.5141832 0.46535254 0.31116718 0.3154281 0.20221603 0.20568751 0.16282918
0.20193169 0.23768713 0.19750044 0.399763 0.16270481 0.26437 0.08456633 0.35384604
00000000: 6eb0 063f ffd6 113f 90ab a33e 401a 953e
00000010: 0aed be3e 9709 343e a8f0 133f c58b f03e
00000020: 9e5c 783e 3bca 303e a8c4 6a3e 7644 033f
00000030: 834f e0bc 2e7d 9cbd 2d88 013e c34a db3e
00000040: 43b6 6b3e d1e2 cd3d 94b9 343e 71ed 203e
00000050: 3554 773e 1038 3e3e 8ad9 923e d2fa 783e
00000060: 66d7 0a3e 83a1 033f b042 ee3e 4e51 9f3e
00000070: cb7f a13e b811 4f3e bf9f 523e b1bc 263e
00000080: 2ec7 4e3e 4164 733e 8e3d 4a3e bcad cc3e
00000090: 179c 263e 815b 873e 1d31 ad3d 4f2b b53e

BCBlocks.0.0.f2.1.block.1.ssnorm.bias f4 [40]
-0.095617235 0.007174427 0.25028506 0.16574325 0.31951234 0.1700711 -0.32207048 -0.051315844
-0.04529848 0.08876992 0.14131847 0.24319996 -0.13597175 -0.1521983 -0.10059757 -0.09290482
0.017040074 0.05185711 0.17830858 0.4273586 0.12138081 0.1617797 0.024158452 0.23314331
0.09427593 0.37019688 0.24969053 0.38678306 0.15969123 0.26866874 0.15480468 -0.15495104
-0.06977327 -0.0755181 0.055490255 0.09447983 0.13820398 -0.0042199166 0.22567353 0.1815444
00000000: f8d2 c3bd 7517 eb3b 5d25 803e 99b8 293e
00000010: 1f97 a33e 1e27 2e3e 6ce6 a4be 9030 52bd
00000020: e68a 39bd 01cd b53d cab5 103e 6909 793e
00000030: 2e3c 0bbe dfd9 1bbe 1906 cebd e244 bebd
00000040: a097 8b3c 1f68 543d 8696 363e bfce da3e
00000050: 8196 f83d 94a9 253e f2e7 c53c 1fbd 6e3e
00000060: bd13 c13d 728a bd3e e0ae 7f3e 6e08 c63e
00000070: 1986 233e f38e 893e 1e85 1e3e 7cab 1ebe
00000080: 4ae5 8ebd 3ca9 9abd c049 633d a47e c13d
00000090: 5885 0d3e 3a47 8abb f616 673e c6e6 393e

BCBlocks.0.0.f2.1.block.1.ssnorm.running_mean f4 [40]
0.20696613 0.22641592 0.21945389 0.21300843 0.2117004 0.12702253 0.057766736 0.052673202
0.055811357 0.027658403 0.046260428 0.0400083 0.03287719 0.032113668 0.02947071 0.043278746
0.03214202 0.029291596 0.025458423 0.017274998 -0.117317356 -0.080426514 -0.087108724 -0.08211226
-0.043026038 0.26393563 0.30601805 0.2715675 0.2642066 0.27194172 -6e-45 -6e-45
-6e-45 -6e-45 -6e-45 -0.14172532 -0.1661152 -0.18516526 -0.1917848 -0.17337298
00000000: eeee 533e 93d9 673e 85b8 603e e21e 5a3e
00000010: fdc7 583e 3212 023e d09c 6c3d dbbf 573d
00000020: 739a 643d e093 e23c 937b 3d3d bedf 233d
00000030: 3baa 063d 9f89 033d 8f6c f13c 0e45 313d
00000040: 5aa7 033d eef4 ef3c 2f8e d03c 4c84 8d3c
00000050: 1544 f0bd a8b6 a4bd 0f66 b2bd 792a a8bd
00000060: 123c 30bd 9222 873e 66ae 9c3e e50a 8b3e
00000070: 1646 873e f23b 8b3e 0400 0080 0400 0080
00000080: 0400 0080 0400 0080 0400 0080 7120 11be
00000090: 1a1a 2abe f69b 3dbe 3c63 44be b088 31be

BCBlocks.0.0.f2.1.block.1.ssnorm.running_var f4 [40]
0.012248767 0.015605489 0.0117202755 0.009863569 0.008600632 0.030822976 0.00902636 0.006404613
0.004691578 0.0058452426 0.009105532 0.010797999 0.009771844 0.0098207 0.008039308 0.009677195
0.0069044745 0.006106952 0.0055247745 0.0045246375 0.011001044 0.005030919 0.004072952 0.0034524982
0.012385947 0.03797334 0.025054364 0.017956568 0.015558888 0.017268404 6e-45 6e-45
6e-45 6e-45 6e-45 0.0061969035 0.0081262505 0.006419429 0.0059640757 0.0059630307
00000000: 0daf 483c 2aae 7f3c 6606 403c cf9a 213c
00000010: aae9 0c3c 7780 fc3c 4ce3 133c cadd d13b
00000020: cfbb 993b 7389 bf3b 5f2f 153c 17ea 303c
00000030: 161a 203c 00e7 203c 4db7 033c 198d 1e3c
00000040: ee3e e23b d41c c83b 2b09 b53b 6943 943b
00000050: b93d 343c 68da a43b 6676 853b 4f43 623b
00000060: 6dee 4a3c ef89 1b3d cf3e cd3c a719 933c
00000070: b5ea 7e3c 7876 8d3c 0400 0000 0400 0000
00000080: 0400 0000 0400 0000 0400 0000 650f cb3b
00000090: f723 053c 135a d23b 4b6e c33b 8765 c33b

BCBlocks.0.0.f1.0.block.0.weight f4 [8, 1, 1, 3]
0.10969496 0.11104143 0.093828894 -0.2622493 0.10720167 0.22178884 0.032980673 0.23548597
0.011995865 -0.0626435 0.31293458 -0.3262125 0.0743031 0.071299985 0.06978459 -0.07791402
0.034084212 -0.15060633 0.05878792 -0.008397316 0.022307105 -0.10067537 -0.08535495 -0.014230206
00000000: c0a7 e03d b069 e33d 5d29 c03d 8a45 86be
00000010: 8d8c db3d 9d1c 633e be16 073d 3c23 713e
00000020: 4e8a 443c 3c4b 80bd f638 a03e 5305 a7be
00000030: 392c 983d ba05 923d 39eb 8e3d 6391 9fbd
00000040: e39b 0b3d 8c38 1abe 9acb 703d e594 09bc
00000050: 64bd b63c e32e cebd 93ce aebd cf25 69bc

BCBlocks.0.0.f1.0.block.1.weight f4 [8]
0.29620382 0.34790954 0.2767567 0.43819547 0.12111856 0.19769235 0.20332937 0.31296894
00000000: 07a8 973e 3321 b23e 0eb3 8d3e 285b e03e
00000010: 020d f83d dd6f 4a3e 9335 503e 773d a03e

BCBlocks.0.0.f1.0.block.1.bias f4 [8]
-0.12934954 -0.061698593 -0.06614873 -0.052226193 -0.054804333 0.14414473 -0.009007647 0.11457415
00000000: 3574 04be aab7 7cbd fc78 87bd 22eb 55bd
00000010: 827a 60bd ad9a 133e cf94 13bc daa5 ea3d

BCBlocks.0.0.f1.0.block.1.running_mean f4 [8]
0.040272906 -0.0009943753 -0.00030614145 -0.005609122 0.027373109 -0.055516496 -0.0012933317 -0.025059285
00000000: 34f5 243d b355 82ba 9c81 a0b9 bacc b7bb
00000010: 923d e03c 4465 63bd 0385 a9ba 2149 cdbc

BCBlocks.0.0.f1.0.block.1.running_var f4 [8]
0.007993096 0.0005129297 0.0013106633 0.00072210433 0.00035747752 0.002447771 1.2459634e-08 0.0014024785
00000000: 79f5 023c 2176 063a 90ca ab3a 9a4b 3d3a
00000010: d26b bb39 c86a 203b 0d0e 5632 5fd3 b73a

BCBlocks.0.0.f1.1.weight f4 [8, 8, 1, 1]
0.009985198 -0.17667906 0.06264361 0.034474306 -0.06848944 -0.06041354 -0.0014715806 0.19735888
-0.21171914 0.013899782 0.0035584013 -0.07929057 0.011912128 -0.08247925 -0.04420207 0.13576141
0.06282526 -0.13389398 -0.061872862 -0.033209037 0.053358577 0.070320696 -0.017417269 0.12925903
-0.16709518 -0.062350687 -0.023166385 -0.18494427 0.15585591 -0.058477264 0.04882869 0.07308458
0.007875424 0.090723455 -0.23263119 -0.08265742 -0.0905561 0.0638747 0.09211426 0.10897232
-0.11109207 -0.04253892 -0.24920802 -0.13107677 -0.0937259 0.28457457 0.031829864 0.24533969
0.19733752 -0.22195397 0.14037701 0.17235292 0.038710155 -0.09373976 -0.045121804 -0.16375765
-0.14024942 -0.18676895 0.0044563054 -0.17682278 0.053470846 0.050778795 0.04578943 -0.05165664
00000000: f598 233c 5beb 34be 4b4b 803d ee34 0d3d
00000010: 3144 8cbd 3074 77bd 0de2 c0ba 7218 4a3e
00000020: e7cc 58be e9bb 633c 1134 693b 1863 a2bd
00000030: 162b 433c e2ea a8bd 3b0d 35bd 0a05 0b3e
00000040: 88aa 803d 811b 09be 666e 7dbd 3306 08bd
00000050: 868e 5a3d 4c04 903d a9ae 8ebc 7b5c 043e
00000060: 001b 2bbe 6f63 7fbd 6ec7 bdbc 0862 3dbe
00000070: b198 1f3e db85 6fbd 9800 483d 5ead 953d
00000080: ec07 013c 38cd b93d df36 6ebe 4b48 a9bd
00000090: 7a75 b9bd bdd0 823d 67a6 bc3d e12c df3d
000000a0: 3d84 e3bd 4a3d 2ebd 6330 7fbe fd38 06be
000000b0: 5df3 bfbd c2b3 913e 0860 023d 543a 7b3e
000000c0: d912 4a3e e747 63be febe 0f3e 497d 303e
000000d0: 8a8e 1e3d a2fa bfbd a4d1 38bd 16b0 27be
000000e0: 8b9d 0fbe 5c40 3fbe 3306 923b 0811 35be
000000f0: 3f04 5b3d 6dfd 4f3d b38d 3b3d ea95 53bd

BCBlocks.0.1.f2.0.block.0.weight f4 [8, 1, 3, 1]
0.7166456 -0.38037965 -0.18937424 0.5759902 -0.26837534 -0.30984393 0.026079608 -0.10847554
-0.32648882 -0.41571495 0.04213114 0.17730992 -0.20689079 -0.36146712 -0.11328019 -0.0925311
0.60423374 -0.18794604 0.10484723 0.08429471 0.09454266 -0.34404653 0.062155172 -0.06827776
00000000: 1676 373f 1fc1 c2be 52eb 41be 1874 133f
00000010: 7e68 89be dda3 9ebe e7a4 d53c 6d28 debd
00000020: 8b29 a7be 97d8 d4be b491 2c3d bb90 353e
00000030: 2edb 53be 3812 b9be 72ff e7bd f280 bdbd
00000040: 10af 1a3f ed74 40be 25ba d63d b4a2 ac3d
00000050: 959f c13d de26 b0be 6c96 7e3d 36d5 8bbd

BCBlocks.0.1.f2.0.block.1.ssnorm.weight f4 [40]
0.07284816 0.36528796 0.3555502 0.10937912 0.010692103 0.33255082 0.547038 0.48539042
0.27008027 0.18122116 0.4264729 0.20853764 0.2042422 0.2362982 0.28335473 0.36235198
0.18055876 0.22581601 0.020767301 0.20546995 0.5478514 0.33260396 0.5356533 0.26502734
0.11307445 0.11391587 0.2076052 0.42524746 0.075688444 0.1413534 0.22358945 0.21257298
0.17960992 0.14034338 0.19701588 0.13472384 0.60416394 0.3436201 0.3835608 0.27960283
00000000: 6b31 953d 0607 bb3e ad0a b63e 2902 e03d
00000010: ee2d 2f3c 1a44 aa3e af0a 0c3f 1885 f83e
00000020: f647 8a3e 0a92 393e a85a da3e e48a 553e
00000030: de24 513e 28f8 713e df13 913e 3386 b93e
00000040: 65e4 383e 503c 673e 3020 aa3c b766 523e
00000050: fd3f 0c3f 114b aa3e 9320 093f aab1 873e
00000060: 9493 e73d b94c e93d 7596 543e 09ba d93e
00000070: 8b02 9b3d f2be 103e a2f4 643e bbac 593e
00000080: aaeb 373e 2db6 0f3e 88be 493e 0cf5 093e
00000090: 7daa 1a3f f9ee af3e 1562 c43e 1a28 8f3e

BCBlocks.0.1.f2.0.block.1.ssnorm.bias f4 [40]
0.084122 -0.123219244 0.14204031 0.054510586 -0.020089392 -0.032038487 -0.15035985 -0.18106873
-0.07915169 -0.24537243 0.28664115 -0.0856023 0.065333664 0.09306253 0.020681644 0.003187499
-0.071112595 -0.121429875 0.046873745 0.12349487 0.123655505 0.12081714 0.19386575 0.07986957
0.006140798 0.06778215 0.10082422 0.1463863 0.044270974 0.17975634 0.040342435 -0.09000261
-0.045159865 -0.045599036 0.030949883 0.15771341 0.05895831 -0.01509132 0.20145625 -5.5248336e-05
00000000: 2848 ac3d 5f5a fcbd 0473 113e 7e46 5f3d
00000010: 8292 a4bc ca3a 03bd eff7 19be 156a 39be
00000020: 481a a2bd e942 7bbe a1c2 923e 4250 afbd
00000030: a8cd 853d 9197 be3d 8d6c a93c 5ce5 503b
00000040: 7ba3 91bd 3ab0 f8bd affe 3f3d e1ea fc3d
00000050: 193f fd3d fa6e f73d be84 463e a892 a33d
00000060: bf38 c93b 5ed1 8a3d ee7c ce3d 4ae6 153e
00000070: 7b55 353d 0c12 383e 1c3e 253d 4a53 b8bd
00000080: 8df9 38bd 0ec6 3abd 9c8a fd3c a07f 213e
00000090: 457e 713d 9541 77bc 8c4a 4e3e 73ba 67b8

BCBlocks.0.1.f2.0.block.1.ssnorm.running_mean f4 [40]
-0.02409036 0.028746536 0.03414649 0.035070445 0.05561788 0.005812175 0.002864035 -0.002739971
0.00016907243 0.022471845 -0.07874363 -0.08181261 0.0014951814 -0.0012481576 -0.004357157 -0.012112972
-0.019175474 -0.0070618265 -0.012874376 -0.083566405 -0.12283715 -0.14232017 -0.09944313 -0.18080427
-0.08548123 0.1501955 0.10266995 0.16082898 0.07389468 0.12747952 0.029642608 0.0048206206
0.002280697 0.0031224752 0.010476228 -0.05712624 -0.059586987 -0.04391528 -0.068752415 -0.06344182
00000000: 2659 c5bc db7d eb3c 31dd 0b3d 07a6 0f3d
00000010: 93cf 633d 0f74 be3b 89b2 3b3b 1691 33bb
00000020: 0949 3139 e016 b83c 5744 a1bd 5f8d a7bd
00000030: f6f9 c33a 3899 a3ba 7bc6 8ebb 7d75 46bc
00000040: e215 9dbc e566 e7bb 0cef 52bc dd24 abbd
00000050: 0b92 fbbd 61bc 11be d7a8 cbbd c124 39be
00000060: c810 afbd d9cc 193e 9f44 d23d 5ab0 243e
00000070: 1856 973d fe89 023e 0ed5 f23c 4cf6 9d3b
00000080: bf77 153b 71a2 4c3b 7ca4 2b3c 34fd 69bd
00000090: 7c11 74bd 82e0 33bd 11ce 8cbd c9ed 81bd

BCBlocks.0.1.f2.0.block.1.ssnorm.running_var f4 [40]
0.020389844 0.021824 0.014978417 0.0072887954 0.016342232 0.019415611 0.033760317 0.033797335
0.012284251 0.009466838 0.015062155 0.030692486 4.2805877e-05 0.00023192959 0.0009437528 0.010329441
0.005456977 0.0017201639 0.0028355606 0.008370157 0.008352795 0.0067159315 0.007847955 0.0098546585
0.0021768378 0.042929344 0.02478976 0.01236417 0.009532781 0.009696267 0.0006441132 0.00032722676
0.00034226582 0.0003615229 0.0004914405 0.0069235642 0.0049842293 0.0035241581 0.0023615235 0.0059437794
00000000: 9a08 a73c 3fc8 b23c 0968 753c d9d6 ee3b
00000010: 25e0 853c 7d0d 9f3c 4248 0a3d 136f 0a3d
00000020: e243 493c cc1a 1b3c 42c7 763c cf6e fb3c
00000030: 768a 3338 2032 7339 2e66 773a d13c 293c
00000040: 71d0 b23b 1f77 e13a d0d4 393b fc22 093c
00000050: 29da 083c 5111 dc3b b694 003c 6f75 213c
00000060: 47a9 0e3b aed6 2f3d e513 cb3c 1693 4a3c
00000070: 622f 1c3c 17dd 1e3c b5d9 283a a28f ab39
00000080: 2472 b339 c88a bd39 04d4 003a 11df e23b
00000090: bf52 a33b 90f5 663b cac3 1a3b 09c4 c23b

BCBlocks.0.1.f1.0.block.0.weight f4 [8, 1, 1, 3]
-0.05732006 -0.09872334 0.25458723 0.098484084 -0.2440752 0.22797027 0.18079324 0.0747131
-0.014968805 0.33581722 -0.21832663 0.033748474 0.01960179 0.18089008 -0.07698083 -0.122194394
0.35330617 -0.07781701 -0.03533368 -0.052741613 -0.10790159 -0.08248684 0.07409182 0.15972406
00000000: 70c8 6abd 762f cabd 4259 823e 06b2 c93d
00000010: d9ee 79be 0a71 693e dd21 393e 2f03 993d
00000020: b83f 75bc 3cf0 ab3e 0491 5fbe d73b 0a3d
00000030: ef93 a03c 403b 393e 20a8 9dbd 0e41 fabd
00000040: 8ce4 b43e 865e 9fbd 0dba 10bd 9707 58bd
00000050: 82fb dcbd dcee a8bd 74bd 973d b48e 233e

BCBlocks.0.1.f1.0.block.1.weight f4 [8]
0.29260865 0.3774002 0.41539004 0.52801144 0.26668903 0.36068207 0.20556314 0.22282034
00000000: cdd0 953e 993a c13e 01ae d43e c22b 073f
00000010: 778b 883e 52ab b83e 257f 523e 042b 643e

BCBlocks.0.1.f1.0.block.1.bias f4 [8]
-0.11929831 -0.041326676 0.050055876 -0.06273329 -0.10843391 -0.14322324 -0.02286716 -0.029625334
00000000: ac52 f4bd 2946 29bd 6407 4d3d 507a 80bd
00000010: 9912 debd 1da9 12be e953 bbbc d4b0 f2bc

BCBlocks.0.1.f1.0.block.1.running_mean f4 [8]
0.0028037664 -0.0108775925 0.017962616 -0.0005429642 0.013403224 0.016720714 0.0048801037 0.012902624
00000000: 65bf 373b ee37 32bc 5626 933c b655 0eba
00000010: 3299 5b3c e1f9 883c 47e9 9f3b 8765 533c

BCBlocks.0.1.f1.0.block.1.running_var f4 [8]
0.00010976846 1.2374007e-05 0.0011175473 0.0004196286 0.00088089454 0.00031987744 0.0006170579 0.0019716148
00000000: 7e33 e638 f599 4f37 aa7a 923a 9901 dc39
00000010: d5eb 663a 39b5 a739 0ec2 213a 3536 013b

BCBlocks.0.1.f1.1.weight f4 [8, 8, 1, 1]
0.07242583 -0.18681508 -0.01565618 -0.013342662 -6.348716e-05 -0.039437547 0.01848746 0.13106209
0.008890339 -0.1507855 -0.20441785 0.0013939682 -0.038746268 0.0693652 0.118801504 0.04385247
0.07129961 0.11777631 0.07221836 0.081392415 -0.038816728 0.1473213 0.03803661 -0.1067393
0.08387173 -0.011435504 -0.062506 -0.2137732 -0.11341186 -0.15958716 0.04517811 -0.10134385
0.17586537 -0.13084513 0.0476828 -0.2205235 -0.2050001 -0.06444246 0.0032527586 0.004627261
-0.08581425 -0.006754561 0.2383986 0.010361003 -0.045976974 -0.32355595 0.077325396 0.02393476
0.019420719 0.107658446 0.06720878 -0.01569382 -0.076592304 0.270653 0.07689503 -0.101369835
0.21987292 -0.022610722 0.26856816 0.19849226 0.072819866 0.034465235 0.0068675345 -0.0005329601
00000000: fe53 943d 744c 3fbe 6441 80bc 2e9b 5abc
00000010: 6924 85b8 4489 21bd 0473 973c 2435 063e
00000020: c9a8 113c 8467 1abe ea52 51be d0b5 b63a
00000030: 68b4 1ebd 580f 8e3d 344e f33d a69e 333d
00000040: 8805 923d b534 f13d 38e7 933d 11b1 a63d
00000050: 4afe 1ebd 65db 163e 47cc 1b3d 229a dabd
00000060: f1c4 ab3d fb5b 3bbc 2503 80bd 5de7 5abe
00000070: 7a44 e8bd d16a 23be af0c 393d 5d8d cfbd
00000080: 0d16 343e 44fc 05be 0a4f 433d ead0 61be
00000090: 8ceb 51be 69fa 83bd 3c2c 553b 47a0 973b
000000a0: 62bf afbd 5d55 ddbb c31e 743e 32c1 293c
000000b0: 5a52 3cbd 20a9 a5be c75c 9e3d d412 c43c
000000c0: 3318 9f3c 087c dc3d c2a4 893d 5390 80bc
000000d0: 6ddc 9cbd 0893 8a3e 247b 9d3d fd9a cfbd
000000e0: 5e26 613e 1f3a b9bc c481 893e 8e41 4b3e
000000f0: 9522 953d 6b2b 0d3d 0e09 e13b 59b6 0bba

BCBlocks.1.0.f2.0.block.0.weight f4 [12, 8, 1, 1]
-0.025042925 -0.096831396 -0.26960644 0.4413547 0.6971535 0.26438695 -0.10115942 -0.038391802
-0.06632743 0.11628264 0.08430298 -0.055713087 -0.10979053 0.426711 -0.13082585 -0.0063227923
0.48466042 0.32006377 -0.04744389 -0.30864885 0.1871078 -0.073986694 -0.0957511 0.14805268
-0.21850273 -0.058215916 0.11192738 -0.25692403 0.0019320693 -0.06816255 -0.013097951 0.24431442
-0.010157271 -0.098751046 -0.07549045 0.072125845 0.03926142 0.35903487 -0.40049374 0.09114704
0.23651116 -0.15660524 -0.021446977 -0.14847843 0.08824083 -0.30919835 0.096927345 -0.3239931
0.07053823 -0.12058004 -0.17034465 0.027562218 0.053104065 0.4234424 -0.10695959 0.40848857
-0.00719583 0.028742645 0.23240173 -0.039672296 0.047441196 -0.29673356 0.09580805 0.20953773
0.35328376 -0.11299204 0.33758727 0.06399003 0.016847465 -0.24296875 0.107517354 -0.074345425
-0.07181846 -0.033593412 -0.030485313 0.14723942 0.10500331 -0.28355837 -0.112983644 -0.44635016
-0.012064698 -0.34249574 5.2560128e-05 -0.1312888 -0.018993212 0.5764727 0.021812228 -0.29308236
0.44637895 0.6148409 -0.4071831 0.12734622 0.22752765 0.20089725 -0.15932502 0.0003365147
00000000: d226 cdbc 8a4f c6bd db09 8abe 3ef9 e13e
00000010: a778 323f ba5d 873e ac2c cfbd b940 1dbd
00000020: add6 87bd 9825 ee3d 0aa7 ac3d 6833 64bd
00000030: dbd9 e0bd dd79 da3e 36f7 05be 6d2f cfbb
00000040: 6925 f83e 66df a33e 8654 42bd 3907 9ebe
00000050: 3099 3f3e 5686 97bd 2719 c4bd 1f9b 173e
00000060: 2ebf 5fbe d073 6ebd 2f3a e53d 8c8b 83be
00000070: 7d3d fd3a cf98 8bbd ca98 56bc 8f2d 7a3e
00000080: af6a 26bc fd3d cabd bd9a 9abd b7b6 933d
00000090: 95d0 203d 6bd3 b73e 840d cdbe 4dab ba3d
000000a0: fb2f 723e 205d 20be 92b1 afbc bb0a 18be
000000b0: 9cb7 b43d 3f4f 9ebe d881 c63d 6ce2 a5be
000000c0: 5976 903d abf2 f6bd d46e 2ebe 29ca e13c
000000d0: a683 593d 71cd d83e a10d dbbd 6a25 d13e
000000e0: ffca ebbb b275 eb3c b8fa 6d3e 6b7f 22bd
000000f0: b351 423d 76ed 97be 0337 c43d 0f91 563e
00000100: 9ce1 b43e 5f68 e7bd 3dd8 ac3e 340d 833d
00000110: b203 8a3c cdcc 78be 0f32 dc3d 6a42 98bd
00000120: 8f15 93bd 3f99 09bd 56bc f9bc eec5 163e
00000130: fa0b d73d 902e 91be f863 e7bd 0288 e4be
00000140: 03ab 45bc 9a5b afbe 0274 5c38 9270 06be
00000150: a797 9bbc b793 133f 8faf b23c e40e 96be
00000160: c88b e43e 3766 1d3f 4e7a d0be 0c67 023e
00000170: 02fd 683e 02b8 4d3e 1926 23be 3d6e b039

BCBlocks.1.0.f2.0.block.1.weight f4 [12]
0.31208655 0.32848415 0.32293996 0.21504284 0.3036548 0.2833417 0.28084463 0.2614546
0.21952145 0.2981579 0.15153751 0.086604446
00000000: cfc9 9f3e 132f a83e 6358 a53e 3134 5c3e
00000010: a478 9b3e 2a12 913e deca 8f3e 61dd 853e
00000020: 3bca 603e 27a8 983e a62c 1b3e ac5d b13d

BCBlocks.1.0.f2.0.block.1.bias f4 [12]
-0.1163044 -0.10238666 0.118119255 0.1268703 -0.25936103 0.13412297 0.097033925 0.10228406
0.15724473 -0.027624445 0.29550663 0.3324126
00000000: 0031 eebd 19b0 d1bd 82e8 f13d 4aea 013e
00000010: f8ca 84be 8857 093e b9b9 c63d 4e7a d13d
00000020: c304 213e a94c e2bc a54c 973e fc31 aa3e

BCBlocks.1.0.f2.0.block.1.running_mean f4 [12]
0.36943337 0.1693466 0.17703536 -0.0671512 0.18339038 -0.20551133 0.34349886 -0.03149023
0.034164175 -0.2658648 0.13324139 0.3301838
00000000: 5f26 bd3e 3269 2d3e c248 353e 9186 89bd
00000010: b0ca 3b3e 9071 52be 15df af3e e6fb 00bd
00000020: bcef 0b3d 6e1f 88be 6e70 083e da0d a93e

BCBlocks.1.0.f2.0.block.1.running_var f4 [12]
0.051756784 0.045249954 0.060821697 0.02323612 0.037881535 0.027513212 0.049607903 0.029453034
0.026076565 0.03533281 0.08727917 0.11342286
00000000: ecfe 533d 0458 393d 2c20 793d ad59 be3c
00000010: ab29 1b3d 6363 e13c a831 4b3d 7d47 f13c
00000020: 859e d53c 23b9 103d 6cbf b23d 3f4a e83d

BCBlocks.1.0.f2.1.block.0.weight f4 [12, 1, 3, 1]
0.35480654 0.3367483 -0.0453071 -0.1261545 -0.2377531 -0.13756125 0.4051829 -0.20107028
0.45099613 -0.08425801 0.13443312 0.30316365 0.15731484 0.22723383 0.16034882 0.19419774
0.31265816 -0.22218692 -0.3074024 0.29135832 0.32934907 -0.12837797 -0.08716345 -0.2332277
0.18856512 -0.0813825 0.35585114 -0.20355849 0.22857931 0.21139412 0.18984897 0.43496725
0.34881872 0.16131307 0.5384352 0.28254196
00000000: 34a9 b53e 466a ac3e f093 39bd a52e 01be
00000010: 8c75 73be dbdc 0cbe 2274 cf3e 5ee5 4dbe
00000020: f7e8 e63e 778f acbd d6a8 093e 4438 9b3e
00000030: 2417 213e fcaf 683e 7b32 243e c6db 463e
00000040: bb14 a03e f884 63be d963 9dbe eb2c 953e
00000050: 71a0 a83e 8475 03be c082 b2bd 3ed3 6ebe
00000060: 3717 413e deab a6bd 1f32 b63e a371 50be
00000070: b210 6a3e b377 583e c567 423e 07b4 de3e
00000080: 5e98 b23e 412f 253e e4d6 093f 57a9 903e

BCBlocks.1.0.f2.1.block.1.ssnorm.weight f4 [60]
0.3111252 0.31404564 0.32046035 0.23970126 0.17730956 0.30861485 0.3618408 0.23235567
0.10550256 0.21942711 0.14558914 0.33463874 0.20468757 0.19046098 0.26791373 0.21745507
0.1706226 0.1834905 0.15733609 0.32161304 0.11988429 0.17019153 0.21762028 0.08428838
0.25166672 0.28673697 0.22983295 0.28127715 0.27982804 -0.08442856 0.16458751 0.24412961
0.35332412 0.18001252 0.13208354 0.2196611 0.057431575 0.26222116 0.37108597 0.17710988
0.40079442 0.322582 0.10356745 0.14328685 0.19492374 0.28708428 0.27490538 0.17146477
0.21655516 0.13186295 0.44970486 0.52665657 0.31809947 0.27308303 0.12614311 0.4053132
0.5583307 0.46378446 0.22548027 0.17499256
00000000: cd4b 9f3e 97ca a03e 6113 a43e 3f74 753e
00000010: a390 353e c402 9e3e 3343 b93e a5ee 6d3e
00000020: ba11 d83d 80b1 603e 5215 153e c555 ab3e
00000030: 9e99 513e 3408 433e fd2b 893e 8bac 5e3e
00000040: b1b7 2e3e efe4 3b3e b61c 213e 77aa a43e
00000050: e585 f53d b046 2e3e dad7 5e3e 639f ac3d
00000060: 76da 803e 30cf 923e 5459 6b3e 8f03 903e
00000070: 9f45 8f3e e2e8 acbd a189 283e 1dfd 793e
00000080: e6e6 b43e 3455 383e e840 073e d7ee 603e
00000090: 5f3d 6b3d da41 863e fbfe bd3e 4b5c 353e
000000a0: ed34 cd3e 7829 a53e 2c1b d43d cab9 123e
000000b0: 179a 473e b6fc 923e 66c0 8c3e 7694 2f3e
000000c0: a3c0 5d3e 1507 073e b73f e63e f7d2 063f
000000d0: efdd a23e 8ad1 8b3e a92b 013e 3685 cf3e
000000e0: c3ee 0e3f 2875 ed3e 4de4 663e 4031 333e

BCBlocks.1.0.f2.1.block.1.ssnorm.bias f4 [60]
0.011552005 0.17353126 -0.05852094 0.04003849 0.1480984 0.14927185 0.049860656 0.15046327
0.1090598 0.07355332 0.124258645 -0.0004793668 -0.037025448 -0.023590093 0.18567666 0.0580928
-0.038528457 -0.06900026 0.06526904 0.055520892 -0.010314032 -0.025849141 -0.058135215 0.08557177
-0.023188438 0.13575013 0.19621249 0.13827762 -0.057685368 -0.018539665 0.17980692 0.16672933
0.025648471 0.14935388 -0.045867387 -0.09666467 0.18797797 0.08541813 0.24297613 0.032077353
0.20834973 -0.005072491 0.18464522 -0.057074312 0.1258424 0.00288725 -0.07821804 0.09247793
0.1975811 0.018137535 0.02820248 0.3053455 0.3715106 -0.037612308 0.035326082 0.15971638
0.3484344 0.24722527 -0.029429963 -0.01578153
00000000: 9f44 3d3c 2eb2 313e a7b3 6fbd 66ff 233d
00000010: 1ba7 173e b8da 183e b03a 4c3d 0b13 1a3e
00000020: bf5a df3d 1fa3 963d 517b fe3d 8653 fbb9
00000030: ffa7 17bd 0340 c1bc 0622 3e3e b7f2 6d3d
00000040: 04d0 1dbd 0250 8dbd c6ab 853d e069 633d
00000050: 30fc 28bc 94c1 d3bc 311f 6ebd 4140 af3d
00000060: aef5 bdbc 1502 0b3e edeb 483e a698 0d3e
00000070: 7e47 6cbd 7fe0 97bc 4e1f 383e 18bb 2a3e
00000080: be1c d23c 39f0 183e 71df 3bbd 20f8 c5bd
00000090: 4c7d 403e b3ef ae3d bcce 783e 8b63 033d
000000a0: a259 553e 2337 a6bb a313 3d3e c1c6 69bd
000000b0: d5dc 003e 0438 3d3b c830 a0bd 1265 bd3d
000000c0: b352 4a3e 2b95 943c e308 e73c 3f56 9c3e
000000d0: a336 be3e 5d0f 1abd 15b2 103d b18c 233e
000000e0: fe65 b23e 9f28 7d3e 1b17 f1bc 4448 81bc

BCBlocks.1.0.f2.1.block.1.ssnorm.running_mean f4 [60]
0.04189323 0.03361004 0.055666 0.034208562 0.029337779 -0.055282205 -0.056456782 -0.065317005
-0.014997494 -0.011684646 0.10439387 0.12012816 0.20271303 0.10616836 0.05449719 0.08787192
0.092519075 0.027567625 0.07254594 0.02021062 0.011167823 0.021871043 0.03086531 0.0058452142
0.0069711045 0.04483649 0.041044693 0.07404152 0.04904487 0.0728203 0.067482576 0.04016699
0.06888837 0.036968775 0.07809872 -0.08095307 -0.08487637 -0.04245863 -0.08064243 -0.0316919
0.067686714 0.07722241 0.075843826 0.07647346 0.06253249 0.02153761 0.022966174 0.02670401
0.01783869 0.04314103 0.25940996 0.29090115 0.34897864 0.22921754 0.28633857 0.27145937
0.31660318 0.35862836 0.32680085 0.32907602
00000000: 3c98 2b3d aeaa 093d 0802 643d 471e 0c3d
00000010: c855 f03c 986f 62bd 3a3f 67bd ecc4 85bd
00000020: 0db8 75bc f570 3fbc 74cc d53d c105 f63d
00000030: 0194 4f3e cc6e d93d 7238 5f3d 31f6 b33d
00000040: a47a bd3d 80d5 e13c f792 943d be90 a53c
00000050: 3ff9 363c e72a b33c 3fd9 fc3c 3689 bf3b
00000060: dd6d e43b 78a6 373d 7b1e 283d 15a3 973d
00000070: 46e3 483d cf22 953d 4e34 8a3d 2486 243d
00000080: 5915 8d3d 926c 173d 39f2 9f3d b9ca a5bd
00000090: aad3 adbd 1ae9 2dbd dc27 a5bd 5ecf 01bd
000000a0: 559f 8a3d c826 9e3d 0254 9b3d 1e9e 9c3d
000000b0: 0911 803d a46f b03c 8f23 bc3c 5ec2 da3c
000000c0: 7222 923c a6b4 303d 62d1 843e fff0 943e
000000d0: 54ad b23e 01b8 6a3e f89a 923e b9fc 8a3e
000000e0: d019 a23e 239e b73e 7152 a73e a77c a83e

BCBlocks.1.0.f2.1.block.1.ssnorm.running_var f4 [60]
0.016071199 0.007986498 0.009686275 0.00544909 0.0023677037 0.0068093715 0.010322595 0.012825852
0.001437193 0.000567506 0.011159763 0.043884326 0.03226915 0.015391926 0.00691102 0.0017906404
0.0032911822 0.0010160124 0.0016661651 0.0017451014 0.0012048132 0.0029331115 0.0054937745 0.00048217608
0.00025177118 0.0026241292 0.0056468863 0.010024668 0.0033332736 0.0038472873 0.0120498855 0.012010971
0.019952588 0.0052981116 0.0063128443 0.0021080645 0.0056265946 0.002746363 0.0023042157 0.0014270869
0.0047499607 0.010317806 0.0048827436 0.002091721 0.0030812533 0.001470171 0.002140346 0.0022341616
0.0017644442 0.0019444415 0.014506185 0.018855404 0.018219087 0.0067631244 0.0040459647 0.0029888242
0.009188213 0.00807945 0.002713056 0.0017745817
00000000: bfa7 833c cdd9 023c 2fb3 1e3c 488e b23b
00000010: 7a2b 1b3b 2621 df3b 1a20 293c 8623 523c
00000020: 3260 bc3a afc4 143a 70d7 363c 0dc0 333d
00000030: a82c 043d 6b2e 7c3c d675 e23b ecb3 ea3a
00000040: e0b0 573b b82b 853a 3963 da3a e3bb e43a
00000050: d3ea 9d3a 7239 403b 1f05 b43b 94cc fc39
00000060: 2800 8439 95f9 2b3b 8409 b93b 813e 243c
00000070: 0d73 5a3b c522 7c3b e26c 453c aac9 443c
00000080: 9c73 a33c c89b ad3b fadb ce3b 7427 0a3b
00000090: 4c5f b83b 53fc 333b 5302 173b 170d bb3a
000000a0: 8fa5 9b3b 040c 293c 6cff 9f3b 4115 093b
000000b0: daee 493b c1b2 c03a 0c45 0c3b 036b 123b
000000c0: ec44 e73a a1dc fe3a 5aab 6d3c a676 9a3c
000000d0: 3240 953c 339d dd3b 0394 843b 26e0 433b
000000e0: 298a 163c ab5f 043c 87cd 313b 1599 e83a

BCBlocks.1.0.f1.0.block.0.weight f4 [12, 1, 1, 3]
0.17736222 -0.16049099 -0.17819226 -0.120231956 -0.050359804 0.24775985 0.20510623 -0.0030457114
-0.18746734 0.10713119 0.07759386 0.11153059 -0.012928905 0.14428616 0.19076711 0.1369586
0.042578537 0.14969482 0.1844089 0.052837294 -0.10245988 -0.16160415 0.06552424 -0.05300305
-0.08333643 0.24148786 0.11199441 -0.22504935 0.17062862 -0.19541974 0.3356885 0.030558126
-0.19729142 -0.14079349 -0.064367756 0.318234
00000000: 719e 353e c057 24be 0878 36be 2c3c f6bd
00000010: 1546 4ebd c2b4 7d3e 5e07 523e 8f9a 47bb
00000020: 70f7 3fbe 9967 db3d 88e9 9e3d 266a e43d
00000030: c2d3 53bc c0bf 133e 7458 433e e03e 0c3e
00000040: d566 2e3d 9949 193e b0d5 3c3e eb6b 583d
00000050: 7cd6 d1bd 8f7b 25be 9331 863d ba19 59bd
00000060: 4aac aabd 9848 773e 535d e53d 5673 66be
00000070: 45b9 2e3e 1d1c 48be 5ddf ab3e 0955 fa3c
00000080: c306 4abe 2b2c 10be 3ed3 83bd 91ef a23e

BCBlocks.1.0.f1.0.block.1.weight f4 [12]
0.33816847 0.35395864 0.30915934 0.22617827 0.3100912 0.2782035 0.20442101 0.2411686
0.28756356 0.5238195 0.3172434 0.31645748
00000000: 6b24 ad3e 113a b53e 224a 9e3e 479b 673e
00000010: 46c4 9e3e b070 8e3e be53 513e e7f4 763e
00000020: 883b 933e 0919 063f ba6d a23e b706 a23e

BCBlocks.1.0.f1.0.block.1.bias f4 [12]
0.0445561 -0.16755068 -0.072124735 -0.028674634 0.010364216 0.0054974547 -0.0956131 0.028828258
-0.047460053 -0.041863177 -0.018792925 -0.08226333
00000000: 7580 363d 6892 2bbe 22b6 93bd 11e7 eabc
00000010: acce 293c fe23 b43b cdd0 c3bd 3d29 ec3c
00000020: 7965 42bd b978 2bbd 9ff3 99bc ad79 a8bd

BCBlocks.1.0.f1.0.block.1.running_mean f4 [12]
-0.009769123 0.0075654285 -0.00023980605 0.0038583898 -0.0018246355 0.024921779 0.012578632 -0.014262041
0.024329381 -0.0113953445 0.022738326 0.01910268
00000000: ac0e 20bc 6ae7 f73b 7274 7bb9 0add 7c3b
00000010: 9c28 efba c228 cc3c 9b16 4e3c 56ab 69bc
00000020: 694e c73c 8ab3 3abc ba45 ba3c 397d 9c3c

BCBlocks.1.0.f1.0.block.1.running_var f4 [12]
0.00094221276 0.000541896 0.0013040733 0.00049428403 0.00048644596 0.0001921454 0.000118974065 0.0006484347
0.0019448574 0.00049752934 0.002807278 0.0025906034
00000000: d4fe 763a 060e 0e3a 70ed aa3a d792 013a
00000010: ac09 ff39 a37a 4939 b781 f938 b7fb 293a
00000020: 96ea fe3a a16c 023a 4ffa 373b 1dc7 293b

BCBlocks.1.0.f1.1.weight f4 [12, 12, 1, 1]
0.31278965 0.05683226 -0.005224709 -0.025970941 -0.011866622 -0.085308045 -0.013893068 -0.13037455
-0.037359808 -0.1546094 -0.005078207 -0.042068087 -0.06581725 -0.08465754 0.02704538 -0.033341624
0.24959698 0.042231493 0.09962113 0.034576558 -0.12059989 0.057433642 0.0799091 0.052628845
0.02514223 0.030173019 0.1737538 -0.1556256 -0.23286727 -0.054255832 -0.12790574 -0.057253
-0.031047432 0.12989488 -0.16470881 0.121892825 -0.14094426 -0.0019786886 -0.106934585 0.032549664
0.1366741 0.10599547 0.10147311 0.13336433 0.04720032 0.05688823 0.040076472 -0.102432154
0.06197037 -0.040272787 -0.27456322 0.0069576604 -0.14906377 0.120181315 0.07667046 0.12430784
-0.14072815 -0.13170049 0.2352735 0.050013587 -0.003342788 -0.053257298 -0.0941039 -0.10019993
-0.0018081056 -0.024688102 0.042326692 -0.041136544 0.24917987 0.10285574 -0.009627975 0.1523587
-0.11638166 0.04036193 -0.01865089 0.053802393 0.05992352 0.14067039 -0.1562818 0.07773659
0.15270296 0.03444814 -0.020574685 -0.041514225 0.04050202 -0.13076799 0.13235621 0.00975251
-0.03076502 0.07542105 0.008389726 -0.01969335 -0.07876334 0.181925 -0.22937474 -0.06625434
0.13292578 -0.03347925 0.005103106 -0.09506481 0.07976252 0.07750088 0.0746753 -0.009672126
-0.007098295 0.2340688 0.058164004 0.10121801 0.06262404 0.0011716395 -0.12861736 0.053506404
0.09693103 -0.051559746 0.1425079 -0.013008528 -0.10088401 -0.24565981 0.1147077 -0.036677692
0.1846102 -0.14606711 0.030419175 0.047934 -0.027749814 0.16708232 0.06364097 -0.052245233
0.047444336 -0.0827309 0.075720444 -0.32718566 -0.070195995 -0.17421494 -0.021298172 -0.08853028
-0.2133685 -0.13564478 -0.056934386 0.03062791 -0.055901892 -0.030267157 -0.019725442 0.015141174
00000000: f725 a03e f2c8 683d 0934 abbb 03c1 d4bc
00000010: 386c 42bc fcb5 aebd c09f 63bc e880 05be
00000020: 9906 19bd ed51 1ebe 1667 a6bb 964f 2cbd
00000030: 32cb 86bd ef60 adbd 468e dd3c 3a91 08bd
00000040: 5a96 7f3e eefa 2c3d 2a06 cc3d 26a0 0d3d
00000050: 13fd f6bd 8a3f 6b3d 62a7 a33d 5891 573d
00000060: 14f7 cd3c 682d f73c 84ec 313e 515c 1fbe
00000070: c274 6ebe 5d3b 5ebd b9f9 02be 1f82 6abd
00000080: 2f57 febc 2a03 053e 6da9 28be f2a2 f93d
00000090: b153 10be e3ac 01bb 8500 dbbd cc52 053d
000000a0: 4cf4 0b3e 2714 d93d 22d1 cf3d a990 083e
000000b0: 1f55 413d a203 693d 3a27 243d f3c7 d1bd
000000c0: a5d4 7d3d 14f5 24bd 8d93 8cbe 16fd e33b
000000d0: 2ca4 18be 9f21 f63d 6705 9d3d 1c95 fe3d
000000e0: 0a1b 10be 7edc 06be 89eb 703e 0cdb 4c3d
000000f0: ad12 5bbb 5324 5abd 8cb9 c0bd 9f35 cdbd
00000100: f5fd ecba b43e cabc c15e 2d3d cb7e 28bd
00000110: 0229 7f3e 08a6 d23d a7be 1dbc eb03 1c3e
00000120: 8259 eebd 8d52 253d c0c9 98bc e65f 5c3d
00000130: 5d72 753d e60b 103e 5608 20be 5c34 9f3d
00000140: 2a5e 1c3e 7e19 0d3d 3e8c a8bc d20a 2abd
00000150: 72e5 253d 0be8 05be 6388 073e fec8 1f3c
00000160: ec06 fcbc 5a76 9a3d 1075 093c f353 a1bc
00000170: ad4e a1bd 8c4a 3a3e 36e1 6abe 5bb0 87bd
00000180: b21d 083e 8a21 09bd f537 a73b 57b1 c2bd
00000190: 885a a33d c8b8 9e3d 5def 983d d677 1ebc
000001a0: d098 e8bb bbaf 6f3e 613d 6e3d 634b cf3d
000001b0: 0841 803d b391 993a 45b4 03be 8829 5b3d
000001c0: c783 c63d 5030 53bd 97ed 113e b921 55bc
000001d0: 479c cebd 3f8e 7bbe dfeb ea3d 593b 16bd
000001e0: 750a 3d3e 9e92 15be a231 f93c 7156 443d
000001f0: 9453 e3bc a117 2b3e 3256 823d 19ff 55bd
00000200: fe54 423d d16e a9bd 5213 9b3d e184 a7be
00000210: ebc2 8fbd 6765 32be 8179 aebc 5d4f b5bd
00000220: 467d 5abe 77e6 0abe 0834 69bd 62e7 fa3c
00000230: 62f9 64bd d4f2 f7bc 4097 a1bc b012 783c

BCBlocks.1.1.f2.0.block.0.weight f4 [12, 1, 3, 1]
0.50130934 -0.0159878 0.053366043 -0.0844483 -0.37474743 -0.15091394 0.05797885 0.42105266
-0.4199476 -0.13256198 0.07524531 0.2642295 -0.2668975 -0.31653258 0.13037683 0.315215
-0.33150652 -0.106804356 -0.06264197 0.14580463 0.3628707 -0.09929359 -0.045677546 -0.20403486
0.16680297 -0.17831674 -0.27075565 -0.18754409 -0.25483033 0.25933465 -0.4617239 -0.21600176
0.3384703 0.14879903 0.41110173 -0.23907371
00000000: cf55 003f d9f8 82bc 5a96 5a3d 3bf3 acbd
00000010: e5de bfbe 2f89 1abe 3b7b 6d3d 3794 d73e
00000020: 5f03 d7be 54be 07be 371a 9a3d 1749 873e
00000030: caa6 88be 8f10 a2be 8181 053e dc63 a13e
00000040: 39bb a9be 3ebc dabd 6f4a 80bd cf4d 153e
00000050: 30ca b93e 705a cbbd 6118 3bbd 84ee 50be
00000060: 66ce 2a3e aa98 36be 7ca0 8abe 8f0b 40be
00000070: 1f79 82be 83c7 843e 1367 ecbe 912f 5dbe
00000080: fb4b ad3e c65e 183e ed7b d23e bdcf 74be

BCBlocks.1.1.f2.0.block.1.ssnorm.weight f4 [60]
0.20110084 0.24061373 0.46333328 0.09807493 0.1939197 0.24532571 0.5417343 0.26034135
0.1633222 0.33609197 0.032885227 0.30408144 0.19967738 0.22967659 0.40182683 0.04763589
0.04615137 0.073933356 0.39137045 0.29224548 0.23852868 0.52426386 0.21495064 0.23925152
0.18294513 0.459049 0.40295416 0.2796843 0.31453812 0.07785615 0.0019701696 0.31886002
0.21387401 0.05788941 0.18748294 0.4590531 0.14617625 0.15153755 -0.003973084 0.3300522
-0.17211781 0.09705673 0.24100558 0.2245908 0.25509074 0.37217757 0.4502121 0.255645
0.051663294 0.28398827 0.26586688 0.20562412 0.59899646 0.45443428 0.30970156 0.20660795
0.16024663 0.24177754 0.24469054 0.2935273
00000000: 61ed 4d3e 7263 763e 053a ed3e 82db c83d
00000010: e392 463e aa36 7b3e 19af 0a3f 764b 853e
00000020: ef3d 273e 3f14 ac3e a9b2 063d 90b0 9b3e
00000030: 3a78 4c3e 5730 6b3e 3fbc cd3e da1d 433d
00000040: 3809 3d3d 5f6a 973d b561 c83e 33a1 953e
00000050: dd40 743e 2836 063f 051c 5c3e 5afe 743e
00000060: f855 3b3e 7808 eb3e 0250 ce3e c832 8f3e
00000070: 240b a13e 0c73 9f3d f61d 013b 9f41 a33e
00000080: ca01 5b3e 721d 6d3d 87fb 3f3e 0209 eb3e
00000090: 3aaf 153e a92c 1b3e a530 82bb 9afc a83e
000000a0: a73f 30be aec5 c63d 2bca 763e 21fb 653e
000000b0: 419b 823e 0f8e be3e 3382 e63e e7e3 823e
000000c0: e49c 533d e966 913e b41f 883e 218f 523e
000000d0: d557 193f 9cab e83e 3491 9e3e 0991 533e
000000e0: b117 243e 8894 773e 2890 7a3e 3649 963e

BCBlocks.1.1.f2.0.block.1.ssnorm.bias f4 [60]
0.07784194 -0.0049256287 0.10473814 0.10063679 -0.02501671 -0.011185662 0.047161188 0.022106508
0.098084405 0.17000201 0.020646889 -0.011729994 -0.11313492 -0.09714975 0.04726707 0.038192723
-0.14705214 0.061233655 -0.02653183 0.19018202 -0.1606136 0.37339383 0.10451979 0.21446028
-0.1599873 -0.029290436 -0.12525573 0.14272012 0.07180617 -0.1272838 -0.0076530064 0.2812144
0.18761922 -0.06368921 -0.07991957 0.044074204 -0.05250558 0.030158306 0.06680321 0.17227131
-0.03851666 -0.079118155 0.12593627 -0.053370416 -0.03519716 0.056130033 -0.11525637 0.004403104
0.20346992 0.022625579 0.25137818 -0.012701195 0.3482802 0.0027961927 -0.03756081 0.12141967
0.10231083 0.06400454 0.05752109 -0.027608799
00000000: 986b 9f3d 2b67 a1bb f380 d63d a91a ce3d
00000010: d8ef ccbc 1144 37bc 172c 413d b518 b53c
00000020: 7ae0 c83d 0215 2e3e aa23 a93c 292f 40bc
00000030: 48b3 e7bd 73f6 c6bd 1d9b 413d f96f 1c3d
00000040: d694 16be 24d0 7a3d 4859 d9bc 13bf 423e
00000050: e477 24be 7a2d bf3e 790e d63d 7a9b 5b3e
00000060: b6d3 23be 7ff2 efbc 0a43 00be 3925 123e
00000070: 1d0f 933d af56 02be 12c6 fabb 55fb 8f3e
00000080: 411f 403e 7d6f 82bd dfac a3bd 2787 343d
00000090: 1710 57bd 8d0e f73c 1fd0 883d e467 303e
000000a0: a5c3 1dbd b308 a2bd 70f5 003e f09a 5abd
000000b0: e62a 10bd 9be8 653d 880b ecbd ea47 903b
000000c0: 6b5a 503e 4759 b93c a4b4 803e ac18 50bc
000000d0: c851 b23e 5440 373b 5dd9 19bd e0aa f83d
000000e0: 5788 d13d d014 833d 3c9b 6b3d d92b e2bc

BCBlocks.1.1.f2.0.block.1.ssnorm.running_mean f4 [60]
0.025578259 0.07795431 0.061647035 0.07260726 0.061809953 -0.11760805 -0.09873832 -0.11136883
-0.08365592 -0.06598447 0.0044636414 0.015769888 0.00081172254 -0.024181087 0.054097068 0.014973003
0.009254959 0.019957274 0.009107287 0.04832096 -0.008969288 -0.024414983 -0.02025266 -0.0443295
-0.030556198 -0.047088202 -0.038095467 -0.019348789 0.012068984 0.012692563 0.099856265 0.07339281
0.062324822 0.04465234 0.013338273 -0.03115481 -0.05483169 -0.07540247 -0.076120645 -0.03492763
-0.1076088 -0.022840515 -0.042160388 -0.024654245 -0.01998076 -0.034881994 -0.004789199 -0.0105487965
-0.034782913 -0.047078513 0.089570664 -0.14442986 -0.17224874 -0.10285644 -0.040945694 0.006595971
0.13610454 0.11487511 0.05107 0.02254977
00000000: 7f89 d13c 82a6 9f3d 9a81 7c3d 1db3 943d
00000010: 6f2c 7d3d 7ddc f0bd 5137 cabd 5715 e4bd
00000020: cc53 abbd de22 87bd bd43 923b da2f 813c
00000030: c7c9 543a 6a17 c6bc e394 5d3d 5451 753c
00000040: 1da2 173c 707d a33c bb36 153c 33ec 453d
00000050: ecf3 12bc ee01 c8bc e8e8 a5bc da92 35bd
00000060: fe50 fabc 8fdf 40bd fe09 1cbd 5a81 9ebc
00000070: fdbc 453c 78f4 4f3c 7181 cc3d f84e 963d
00000080: 5048 7f3d 5fe5 363d c688 5a3c 5f38 ffbc
00000090: 3297 60bd 9c6c 9abd 24e5 9bbd 4610 0fbd
000000a0: 0162 dcbd 081c bbbc 5fb0 2cbd b3f7 c9bc
000000b0: b1ae a3bc 6ce0 0ebd b7ee 9cbb dcd4 2cbc
000000c0: 8778 0ebd 66d5 40bd d370 b73d 6ce5 13be
000000d0: f961 30be 66a6 d2bd acb6 27bd 0423 d83b
000000e0: fd5e 0b3e a443 eb3d c72e 513d 4cba b83c

BCBlocks.1.1.f2.0.block.1.ssnorm.running_var f4 [60]
0.0090049505 0.027832476 0.016457146 0.018326757 0.009139165 0.004338132 0.003273138 0.002798242
0.0015318722 0.0023780854 0.0069289673 0.007080195 0.0025446157 0.007127161 0.011219458 0.0012402803
0.0006496031 0.0009059666 0.0009163388 0.0030799008 0.0019104339 0.004534624 0.0057644364 0.00298855
0.006578085 0.011592024 0.008953318 0.011039786 0.007544838 0.0013927384 0.0066386336 0.009604396
0.0064424025 0.0033288018 0.00044011962 0.0007112604 0.00077358965 0.0027514547 0.0043855296 0.0014028002
0.017582169 0.009403232 0.0029507568 0.0035704 0.0042211832 0.0046376036 0.0047982116 0.004257315
0.0059419572 0.002304229 0.018813148 0.053379558 0.048617046 0.019591207 0.00494243 0.02299304
0.043060113 0.038179927 0.007819857 0.0025563086
00000000: 8089 133c ef00 e43c 23d1 863c ff21 963c
00000010: 70bc 153c e426 8e3b 2582 563b b662 373b
00000020: 1ac9 c83a a7d9 1b3b 640c e33b fb00 e83b
00000030: 91c3 263b f68a e93b d1d1 373c e790 a23a
00000040: 204a 2a3a 647e 6d3a 7536 703a 29d8 493b
00000050: 8667 fa3a 2f97 943b 99e3 bc3b 8ddb 433b
00000060: fa8c d73b 79ec 3d3c f0b0 123c 38e0 343c
00000070: b03a f73b 8c8c b63a e588 d93b c25b 1d3c
00000080: ca1a d33b 0728 5a3b dbbf e639 e173 3a3a
00000090: b9ca 4a3a c051 343b 7db4 8f3b 2ade b73a
000000a0: 7b08 903c 0310 1a3c 7c61 413b 5ffd 693b
000000b0: da51 8a3b 0af7 973b 513a 9d3b f280 8b3b
000000c0: c0b4 c23b 8c02 173b 081e 9a3c 86a4 5a3d
000000d0: ab22 473d bd7d a03c 1cf4 a13b e65b bc3c
000000e0: cd5f 303d 8e62 1c3d dc1e 003c be87 273b

BCBlocks.1.1.f1.0.block.0.weight f4 [12, 1, 1, 3]
-0.17817691 0.07901277 0.13989195 -0.18676798 -0.017431103 0.17944878 -0.18262745 0.027359998
-0.08445513 -0.02791062 -0.014742279 -0.15873827 -0.32532385 0.17951433 0.21880822 0.15333623
0.09686844 -0.31992674 -0.05013847 0.16071059 0.16571422 0.11500416 0.04153907 0.026737195
-0.10961298 -0.15255274 0.14986415 0.17284237 0.03656876 -0.010529757 0.047606304 0.077049635
0.08755165 0.076105684 0.18050714 -0.062094633
00000000: 0274 36be 72d1 a13d d63f 0f3e 1b40 3fbe
00000010: accb 8ebc 6cc1 373e b102 3bbe 1322 e03c
00000020: d0f6 acbd d0a4 e4bc 9a89 71bc 498c 22be
00000030: d990 a6be 9bd2 373e 430f 603e 2c04 1d3e
00000040: f662 c63d 70cd a3be ff5d 4dbd 5191 243e
00000050: fdb0 293e 4d87 eb3d df24 2a3d f607 db3c
00000060: c57c e0bd c936 1cbe fd75 193e 97fd 303e
00000070: 20c9 153d 0085 2cbc d4fe 423d 33cc 9d3d
00000080: 484e b33d 4cdd 9b3d ddd6 383e f156 7ebd

BCBlocks.1.1.f1.0.block.1.weight f4 [12]
0.30445877 0.2739485 0.49762326 0.3154744 0.4519651 0.41862056 0.3295632 0.28414282
0.18023807 0.2801282 0.2724642 0.2390751
00000000: 05e2 9b3e fa42 8c3e 7ac8 fe3e dc85 a13e
00000010: f867 e73e 6f55 d63e 82bc a83e 2b7b 913e
00000020: 5490 383e f76c 8f3e 6d80 8b3e 1ad0 743e
