model_params.pth (torch, 117967 bytes, 165 tensors)

cnn_head.0.weight f4 [16, 1, 5, 5]
-0.08940609 0.09085026 0.046194118 -0.040239803 -0.053584464 -0.1740986 -0.065200604 -0.058083396
-0.07581852 0.057379093 -0.15718733 0.056208655 0.13283871 -0.038401432 -0.109343804 0.20835726
0.5864692 0.617006 0.2630533 -0.0017078599 -0.41115874 -0.105722114 0.075872906 -0.18950495
-0.34333253 -0.5369055 0.03046301 0.17917484 0.115087226 0.0068332595 -0.13483326 0.13177818
0.22471876 0.09713747 0.022695096 0.1814524 0.3478111 0.3258487 0.027845312 -0.17497186
0.044595167 0.32216376 0.28055775 -0.1916691 -0.62367904 -0.12903021 0.24063748 0.41855574
0.020025076 -0.3576016 -0.006317028 -0.0022206632 -0.030710604 -0.03762917 -0.08051758 0.031285036
0.067357235 0.0088388175 -0.043743655 -0.082753226 0.03322539 0.06511766 -0.032698143 -0.031500466
-0.012169957 0.095818706 0.057620816 -0.037405454 -0.07484929 -0.025951186 0.031656384 0.08969462
0.028102133 -0.053945657 -0.073224366 -0.02450027 0.007281898 0.08446891 0.17348768 0.14905898
-0.0640305 0.014192607 0.054781847 0.11119132 0.125479 -0.059003036 0.009115595 -0.018831383
0.08800978 0.12207063 -0.05572068 -0.0367322 -0.053574234 -0.084201366 -0.04943058 -0.02153255
-0.10591577 -0.106670626 -0.07822043 -0.16116242 -0.05933032 -0.06368591 -0.006666416 -0.08082438
-0.0027048844 -0.05100934 -0.06653229 -0.048740704 -0.01860514 -0.0053324923 0.050974917 0.0036679113
-0.024064437 -0.024956066 -0.0103139905 0.056627154 -0.0101222955 0.058425516 0.008612871 0.021619488
0.048668746 0.058701087 0.055872068 0.056165334 0.02097828 -0.10683644 -0.088592395 -0.05777896
-0.046289653 -0.029147068 -0.053818323 -0.09497729 -0.04382267 -0.07962639 -0.04044293 0.019316234
-0.033100758 -0.033281755 -0.005048711 -0.055797987 0.061744515 0.017328866 -0.0053396937 0.040194213
0.06439701 0.08699231 0.011196127 0.011991476 0.02529588 0.05562009 -0.04944188 -0.093717344
-0.056968044 -0.07128861 -0.41071254 -0.11887232 -0.20283568 -0.21957013 -0.2125599 -0.24093194
-0.08110381 -0.18488932 -0.17026335 -0.100634366 -0.11956016 0.127307 0.16186403 0.26245278
0.25630298 0.008238138 0.1631343 0.358625 0.5965226 0.52409023 0.2393851 0.036805965
0.0035054046 -0.065259196 -0.13464887 -0.12473078 0.072342575 0.04122718 0.0005661813 -0.049033128
-0.09999594 0.15080355 0.042201933 -0.027573079 -0.11363777 -0.055748586 0.12191206 0.099283315
-0.021357333 -0.1031137 -0.110290036 0.15634963 0.06524565 -0.065943494 -0.047895294 -0.110038795
0.20401762 0.08628749 0.058164146 -0.05698669 -0.22693506 0.2325945 0.035290588 0.06877385
-0.086363144 -0.36999518 0.20921753 0.044175588 0.08725576 0.01922722 -0.33897662 0.37388295
0.019440286 0.005394105 -0.08677832 -0.43750256 0.3839009 0.06563212 0.031424645 -0.03603271
-0.3635492 0.10906904 0.017853513 0.08157578 -0.072601825 -0.32995912 0.068562925 0.097509295
0.21696952 0.06704789 -0.13043162 -0.1370487 0.008069438 0.25052184 0.27760777 0.049288176
-0.4726653 -0.10995694 0.26665384 0.29014245 0.12801489 -0.35587993 -0.020257123 0.2190772
0.26484093 0.091448575 0.032908507 -0.0002716414 -0.0031194873 -0.026148664 0.019692855 0.059183963
00000000: 8a1a b7bd b30f ba3d 0b36 3d3d 7ed2 24bd
00000010: 627b 5bbd e746 32be e587 85bd dbe8 6dbd
00000020: bd46 9bbd 5706 6b3d b7f5 20be 0c3b 663d
00000030: df06 083e d24a 1dbd a5ef dfbd 9b5b 553e
00000040: d822 163f 1bf4 1d3f ecae 863e 45da dfba
00000050: 6683 d2be d684 d8bd 4163 9b3d 960d 42be
00000060: 48c9 afbe a472 09bf 908d f93c 9c79 373e
00000070: dab2 eb3d 89e9 df3b bb11 0abe dcf0 063e
00000080: ad1c 663e 03f0 c63d 11eb b93c a8ce 393e
00000090: 4c14 b23e a4d5 a63e da1b e43c d32b 33be
000000a0: 6ca9 363d a6f2 a43e 44a5 8f3e e844 44be
000000b0: 6ea9 1fbf 7f20 04be ac69 763e f04c d63e
000000c0: a10b a43c 8f17 b7be 12ff cebb 8c88 11bb
000000d0: ce94 fbbc 0b21 1abd 67e6 a4bd bd24 003d
000000e0: 97f2 893d b0d0 103c 8c2c 33bd 867a a9bd
000000f0: 5917 083d 685c 853d 7dee 05bd a206 01bd
00000100: 8064 47bc 993c c43d ce03 6c3d 7636 19bd
00000110: 964a 99bd 9597 d4bc 20aa 013d d0b1 b73d
00000120: 7236 e63c 1ff6 5cbd a8f6 95bd cab4 c8bc
00000130: fd9c ee3b 09fe ac3d c1a6 313e eba2 183e
00000140: 6c22 83bd 1c88 683c ee62 603d 46b8 e33d
00000150: 917d 003e 2bad 71bd 9459 153c 4644 9abc
00000160: 793e b43d 2b00 fa3d 5e3b 64bd 8174 16bd
00000170: a870 5bbd c471 acbd b877 4abd 0865 b0bc
00000180: 5eea d8bd 2176 dabd 0832 a0bd c307 25be
00000190: 5a04 73bd c26d 82bd f371 dabb 4187 a5bd
000001a0: 6e44 31bb 2bef 50bd 1542 88bd 55a4 47bd
000001b0: ce69 98bc 30bc aebb 13cb 503d 5761 703b
000001c0: c822 c5bc aa70 ccbc 03fc 28bc e0f1 673d
000001d0: fcd7 25bc 984f 6f3d 001d 0d3c 5a1b b13c
000001e0: e158 473d 8d70 703d 1cda 643d 9f0d 663d
000001f0: a4da ab3c 10cd dabd ee6f b5bd a1a9 6cbd
00000200: 389a 3dbd d5c5 eebc 9a70 5cbd 7483 c2bd
00000210: 667f 33bd 2913 a3bd 7ca7 25bd 143d 9e3c
00000220: a994 07bd 7352 08bd a86f a5bb 6e8c 64bd
00000230: d1e7 7c3d 44f5 8d3c 99f8 aebb b0a2 243d
00000240: 94e2 833d 0629 b23d f66f 373c e577 443c
00000250: 4e39 cf3c e4d1 633d 9283 4abd e1ee bfbd
00000260: 5357 69bd c3ff 91bd ea48 d2be 5573 f3bd
00000270: 28b4 4fbe fed6 60be 4da9 59be ddb6 76be
00000280: c119 a6bd a053 3dbe 8459 2ebe 6419 cebd
00000290: f5db f4bd c45c 023e afbf 253e 3660 863e
000002a0: 253a 833e 41f9 063c ae0c 273e b29d b73e
000002b0: b5b5 183f c72a 063f 5e21 753e dac1 163d
000002c0: eeba 653b 9da6 85bd 65e1 09be da72 ffbd
000002d0: 5828 943d d5dd 283d c96b 143a f6d6 48bd
000002e0: acca ccbd 3f6c 1a3e efdb 2c3d f0e0 e1bc
000002f0: ebba e8bd a158 64bd 08ad f93d 0d55 cb3d
00000300: 93f5 aebc 472d d3bd bedf e1bd 1e1a 203e
00000310: 839f 853d 620d 87bd db2d 44bd 055c e1bd
00000320: ffe9 503e 7fb7 b03d 873d 6e3d e06a 69bd
00000330: aa61 68be 412d 6e3e dd8c 103d 4ed9 8c3d
00000340: 29df b0bd 0270 bdbe 1f3d 563e 76f1 343d
00000350: 26b3 b23d 6782 9d3c 588e adbe 966d bf3e
00000360: 3c41 9f3c 08c1 b03b d5b8 b1bd 5600 e0be
00000370: a98e c43e 226a 863d 21b7 003d 0997 13bd
00000380: 1f23 babe 975f df3d 8841 923c 3411 a73d
00000390: 44b0 94bd 67f0 a8be b86a 8c3d f4b2 c73d
000003a0: 422d 5e3e 6750 893d de8f 05be 7f56 0cbe
000003b0: ad35 043c 6644 803e 9b22 8e3e 66e2 493d
000003c0: 3001 f2be 1b31 e1bd da86 883e 8d8d 943e
000003d0: 5616 033e e535 b6be 44f2 a5bc c655 603e
000003e0: 3b99 873e 6449 bb3d 12cb 063d 176b 8eb9
000003f0: 5070 4cbb b935 d6bc e952 a13c e26a 723d

cnn_head.1.weight f4 [16]
0.5728015 0.4998934 0.18455985 0.16921575 0.19359246 0.29379502 0.54591364 0.3571451
0.38619146 0.37199223 0.352161 0.18894573 0.5270451 0.21289551 0.17331699 0.33192006
00000000: 1ea3 123f 07f2 ff3e 42fd 3c3e e546 2d3e
00000010: 1a3d 463e 4d6c 963e ffc0 0b3f b9db b63e
00000020: e3ba c53e c475 be3e 724e b43e fd7a 413e
00000030: 6dec 063f 4801 5a3e 027a 313e 6df1 a93e

cnn_head.1.bias f4 [16]
-0.3559135 0.09507323 -0.111266494 -0.010040109 -0.12565254 -0.058504526 0.17699623 -0.14403418
0.23007986 0.30727303 -0.042391118 -0.15023541 0.33642742 -0.07943273 -0.092800505 0.025169294
00000000: 4b3a b6be c1b5 c23d b0df e3bd 457f 24bc
00000010: 0fab 00be 71a2 6fbd 803e 353e b27d 13be
00000020: 0e9a 6b3e e452 9d3e 4fa2 2dbd 50d7 19be
00000030: 3740 ac3e a1ad a2bd 310e bebd d62f ce3c

cnn_head.1.running_mean f4 [16]
-1.3594955 -3.672051 0.4367065 0.0023163536 0.072778404 1.4316218 -1.6452682 1.3211969
0.29556617 -3.6470907 -3.3089964 1.0828849 -1.9346055 1.2280825 1.8504908 -1.4717185
00000000: f303 aebf e202 6bc0 ff97 df3e f7cd 173b
00000010: d80c 953d 623f b73f 2698 d2bf fb1c a93f
00000020: 7354 973e ef69 69c0 99c6 53c0 f99b 8a3f
00000030: 27a1 f7bf cf31 9d3f e2dc ec3f 4661 bcbf

cnn_head.1.running_var f4 [16]
6.9513454 18.675169 0.90739274 2.234557 0.59796184 3.168317 21.302595 4.205504
12.920393 16.375616 10.745786 1.9838023 28.096556 1.8119189 4.242803 9.150223
00000000: 6c71 de40 bf66 9541 e44a 683f fb02 0f40
00000010: 0714 193f b5c5 4a40 b76b aa41 7d93 8640
00000020: eeb9 4e41 4301 8341 bdee 2b41 3ced fd3f
00000030: bfc5 e041 f5ec e73f 0bc5 8740 5067 1241

BCBlocks.0.0.f2.0.block.0.weight f4 [8, 16, 1, 1]
0.21933813 0.26515484 0.03896928 -0.07538182 -0.0626749 0.02721418 0.25330663 0.0129043665
0.0015133646 0.11973143 -0.085141465 0.032490145 0.041872375 -0.12824361 -0.039806146 -0.2862189
0.24081603 0.19984691 0.0034387296 0.08973031 -0.055267274 -0.056767467 0.18356368 -0.078499414
0.08393891 -0.09058164 -0.20241499 0.06152725 0.26271123 -0.13331383 0.019884704 0.13861015
0.27812746 0.21830843 -0.10563254 -0.040964697 0.035166226 0.029674923 0.057413053 -0.31502193
-0.1497391 0.17182118 -0.008151499 -0.10885587 0.15851177 0.006723172 -0.012772776 -0.06515541
-0.33866313 -0.07635516 -0.010324542 0.17217906 0.004692893 -0.19578199 -0.321863 -0.13162893
0.1536517 0.021890825 -0.07904656 0.0023604338 0.062131837 -0.10688827 -0.08661738 0.37043872
0.22576186 0.62919694 0.03432635 0.033199023 -0.13923524 -0.284084 0.3885607 0.0052967016
-0.12655656 -0.10182741 0.090067066 0.13690601 0.1266163 -0.12636612 -0.0821754 0.04138377
0.03827821 0.32480186 0.087818936 0.16424678 -0.0047518946 -0.030393638 -0.34003043 0.04017071
-0.091674976 -0.14235362 -0.08492203 0.056127727 0.030783748 0.0862296 -0.038830534 0.17183597
-0.36402243 0.1467117 -0.07479098 0.090762556 -0.038523924 -0.021168599 -0.49681836 -0.029792538
0.05150909 -0.008198091 -0.106607325 -0.038616363 0.15983407 0.083989404 -0.06535495 0.3362016
0.025366649 0.0917623 -0.07192824 0.08666413 -0.025228538 0.045421664 -0.008390346 -0.22095586
-0.46804187 0.6509482 0.29567516 -0.103043504 -0.6833918 -0.045707073 -0.04448458 0.088399716
00000000: 2d9a 603e 60c2 873e 409e 1f3d c961 9abd
00000010: b35b 80bd 46f0 de3c 68b1 813e d66c 533c
00000020: 175c c63a c135 f53d a65e aebd 6314 053d
00000030: 5e82 2b3d 4b52 03be c50b 23bd 498b 92be
00000040: 7a98 763e aba4 4c3e 4f5c 613b 86c4 b73d
00000050: f05f 62bd 0185 68bd 1ef8 3b3e 4dc4 a0bd
00000060: 2ae8 ab3d de82 b9bd e045 4fbe ff03 7c3d
00000070: 1682 863e 6c83 08be 3fe5 a23c d2ef 0d3e
00000080: b966 8e3e 3f8c 5f3e e055 d8bd 99ca 27bd
00000090: 760a 103d d318 f33c f329 6b3d 8e4a a1be
000000a0: 3555 19be e4f1 2f3e dd8d 05bc d4ef debd
000000b0: e950 223e 0e4e dc3b e844 51bc 3370 85bd
000000c0: 4165 adbe 1860 9cbd 4528 29bc b54f 303e
000000d0: d7c6 993b 137b 48be 3acb a4be bcc9 06be
000000e0: df56 1d3e 6354 b33c 2ae3 a1bd 82b1 1a3b
000000f0: f47d 7e3d 3de8 dabd 7464 b1bd 25aa bd3e
00000100: 1e2e 673e 0d13 213f c999 0c3d b3fb 073d
00000110: af93 0ebe 7573 91be 6ef1 c63e f48f ad3b
00000120: 0b98 01be e48a d0bd 1575 b83d 1731 0c3e
00000130: b4a7 013e 1f66 01be 934b a8bd 0782 293d
00000140: 9dc9 1c3d 6e4c a63e 6ada b33d 4f30 283e
00000150: c8b5 9bbb 14fc f8bc 7818 aebe 0b8a 243d
00000160: 17c0 bbbd 26c5 11be 9aeb adbd 30e6 653d
00000170: 332e fc3c 2599 b03d c40c 1fbd c5f5 2f3e
00000180: 2661 babe 983b 163e 032c 99bd b8e1 b93d
00000190: 43cb 1dbd c569 adbc fa5e febe 7b0f f4bc
000001a0: 32fb 523d 4951 06bc f154 dabd 312c 1ebd
000001b0: 8bab 233e a302 ac3d d1d8 85bd 9e22 ac3e
000001c0: b8cd cf3c dfed bb3d 1d4f 93bd f77c b13d
000001d0: 14ac cebc 110c 3a3d a977 09bc 4142 62be
000001e0: 2fa3 efbe 8ba4 263f bc62 973e 7908 d3bd
000001f0: c4f2 2ebf 5737 3bbd 7735 36bd e90a b53d

BCBlocks.0.0.f2.0.block.1.weight f4 [8]
0.18497482 0.30351457 0.3072572 0.31882146 0.37137622 0.25247094 0.34462357 0.18691713
00000000: 0a6a 3d3e 4366 9b3e d150 9d3e 913c a33e
00000010: 0625 be3e df43 813e 8072 b03e 3467 3f3e

BCBlocks.0.0.f2.0.block.1.bias f4 [8]
0.2894236 0.1582035 0.08030383 0.026259176 0.13287267 0.046745926 0.37475297 0.561775
00000000: 552f 943e 1900 223e 5676 a43d 7c1d d73c
00000010: c60f 083e a878 3f3d 9fdf bf3e 7dd0 0f3f

BCBlocks.0.0.f2.0.block.1.running_mean f4 [8]
0.15220988 0.19464505 0.13128002 -0.039975803 0.24235922 -0.052226305 -0.01842762 -0.1263692
00000000: e8dc 1b3e 0851 473e 456e 063e abbd 23bd
00000010: 042d 783e 40eb 55bd 85f5 96bc ed66 01be

BCBlocks.0.0.f2.0.block.1.running_var f4 [8]
0.036804557 0.029620986 0.03850618 0.045194637 0.103348285 0.028814258 0.06516941 0.22232425
00000000: 60c0 163d b6a7 f23c a8b8 1d3d 031e 393d
00000010: 44a8 d33d e10b ec3c 8a77 853d f8a8 633e

BCBlocks.0.0.f2.1.block.0.weight f4 [8, 1, 3, 1]
-0.32350802 -0.16698876 -0.009871567 -0.072994426 -0.19568568 -0.22767057 0.13375086 0.12050329
0.33316955 0.39539483 0.24835368 -0.09446567 0.7365067 -0.054915044 -0.42517385 0.000673209
0.30826873 0.17543043 0.11893573 -0.12837054 -0.53260434 0.18671998 0.43428364 0.33763796
00000000: d8a2 a5be 1aff 2abe 5abc 21bc 1a7e 95bd
00000010: d461 48be 7922 69be fcf5 083e 6eca f63d
00000020: 3395 aa3e 3171 ca3e 6d50 7e3e 3877 c1bd
00000030: b48b 3c3f 99ee 60bd 63b0 d9be 4b7a 303a
00000040: 66d5 9d3e 09a4 333e 9394 f33d 9173 03be
00000050: c258 08bf 8633 3f3e 6d5a de3e e2de ac3e

BCBlocks.0.0.f2.1.block.1.ssnorm.weight f4 [40]
0.24121742 0.16171572 0.2700998 0.2030863 0.25953713 0.32199788 0.24772614 0.21111737
0.30243224 0.090962805 0.18427728 0.3401595 0.19596948 0.19196872 0.40139833 0.2901228
0.36580122 0.3981542 0.084057264 0.2682774 0.18136384 0.4546445 0.504011 0.24375038
0.1964354 0.45013216 0.27760893 0.18811518 0.10551778 0.09392594 0.3195359 0.3897209
0.30118993 0.23545712 0.3542996 0.40025994 0.37082344 0.29571894 0.33437514 0.5590703
00000000: b301 773e ce98 253e 854a 8a3e dbf5 4f3e
00000010: 0de2 843e e8dc a43e ecab 7d3e 272f 583e
00000020: 66d8 9a3e b54a ba3d 2fb3 3c3e 6329 ae3e
00000030: 39ac 483e 7393 443e 1584 cd3e fa8a 943e
00000040: 4c4a bb3e deda cb3e 3726 ac3d a85b 893e
00000050: 71b7 393e 2ac7 e83e dd06 013f b399 793e
00000060: 5d26 493e b977 e63e c222 8e3e 44a1 403e
00000070: b519 d83d 3e5c c03d 369a a33e 7f89 c73e
00000080: 9135 9a3e ac1b 713e c266 b53e dfee cc3e
00000090: 92dc bd3e 7968 973e 3833 ab3e 3b1f 0f3f

BCBlocks.0.0.f2.1.block.1.ssnorm.bias f4 [40]
-0.13509963 0.11363289 0.20971337 0.08023723 0.08424877 0.0253452 0.042042464 0.3358966
-0.009454602 -0.119412445 0.07158928 -0.045895196 0.019072892 -0.068899155 0.1348871 0.04398198
0.20394675 0.2077198 0.21949925 -0.060802694 0.021615386 0.26861998 -0.09669066 0.080900855
-0.06665792 0.15685597 -0.081160344 0.04156851 -0.14032337 0.027367132 0.086138986 -0.16963512
-0.123692356 -0.18065599 0.16368842 0.28958994 0.1564672 0.42611906 0.3231367 0.06293095
00000000: 8f57 0abe 5cb8 e83d 1abf 563e 6b53 a43d
00000010: 9e8a ac3d bda0 cf3c b834 2c3d a4fa ab3e
00000020: 7ae7 1abc 838e f4bd 679d 923d 9afc 3bbd
00000030: c13e 9c3c 001b 8dbd d81f 0a3e 7326 343d
00000040: 6bd7 503e 80b4 543e 69c4 603e 3f0c 79bd
00000050: c012 b13c 8f88 893e c105 c6bd 59af a53d
00000060: f383 88bd da9e 203e 6537 a6bd be43 2a3d
00000070: eeb0 0fbe 0931 e03c a369 b03d d4b4 2dbe
00000080: 6b52 fdbd e2fd 38be f09d 273e 2245 943e
00000090: f038 203e 472c da3e 2c72 a53e f1e1 803d

BCBlocks.0.0.f2.1.block.1.ssnorm.running_mean f4 [40]
-0.13095169 -0.149175 -0.13312499 -0.13836221 -0.13667364 -0.12852845 -0.10365702 -0.08300124
-0.08001082 -0.08531246 0.12792678 0.10381993 0.077084824 0.07557365 0.060483545 0.10595358
0.06765667 0.06755931 0.045659017 0.054030005 0.027423915 0.086239405 0.050015338 0.046129275
0.019418288 0.07212265 0.061761905 0.049887296 0.043466903 0.034618154 -0.23380761 -0.24489251
-0.22556978 -0.22036384 -0.12044754 0.5387684 0.549483 0.5363556 0.5335205 0.48318428
00000000: 3318 06be 55c1 18be eb51 08be d3ae 0dbe
00000010: 2df4 0bbe f69c 03be 224a d4bd 8efc a9bd
00000020: b6dc a3bd 4db8 aebd 3dff 023e 8b9f d43d
00000030: a6de 9d3d 5cc6 9a3d 98bd 773d 31fe d83d
00000040: 958f 8a3d 895c 8a3d f304 3b3d 914e 5d3d
00000050: 1ea8 e03c 499e b03d e2dc 4c3d 0df2 3c3d
00000060: 1a13 9f3c 0ab5 933d 0dfa 7c3d 9f56 4c3d
00000070: 5a0a 323d c4cb 0d3d 436b 6fbe 1ac5 7abe
00000080: c4fb 66be 0fa7 61be 33ad f6bd baec 093f
00000090: ebaa 0c3f 9a4e 093f cd94 083f ee63 f73e

BCBlocks.0.0.f2.1.block.1.ssnorm.running_var f4 [40]
0.011687849 0.006840364 0.004451119 0.004491244 0.0036596088 0.017478315 0.016288409 0.0118218
0.010851671 0.0073174685 0.02238912 0.0180821 0.010784846 0.00994967 0.0073935953 0.013200874
0.0071897595 0.007256873 0.0042421124 0.0047833254 0.05171714 0.02996533 0.01898213 0.014697583
0.020959908 0.0041302447 0.0039710174 0.0027096889 0.002126262 0.0017076923 0.023670623 0.018385109
0.013812779 0.01222312 0.021208135 0.024555359 0.02557992 0.020340867 0.019133598 0.021142164
00000000: 647e 3f3c 2225 e03b b1da 913b 492b 933b
00000010: 0cd6 6f3b af2e 8f3c 456f 853c 39b0 413c
00000020: 35cb 313c 60c7 ef3b 6369 b73c ea20 943c
00000030: ecb2 303c f103 233c f945 f23b 7b48 583c
00000040: 1398 eb3b 10cb ed3b 6b01 8b3b 71bd 9c3b
00000050: 5ad5 533d da79 f53c 6980 9b3c 22ce 703c
00000060: 1db4 ab3c 0157 873b 4f1f 823b 0995 313b
00000070: c258 0b3b a5d4 df3a e5e8 c13c 5e9c 963c
00000080: ff4e 623c 7b43 483c afbc ad3c 5228 c93c
00000090: fb8c d13c e4a1 a63c 10be 9c3c 5532 ad3c

BCBlocks.0.0.f1.0.block.0.weight f4 [8, 1, 1, 3]
-0.04144883 -0.014930742 -0.13554695 -0.015202569 0.073113725 0.09563999 -0.046020728 -0.22863634
-0.19093479 0.00013584198 0.12207443 0.11766589 -0.19437964 -0.068459615 0.054260977 0.1922413
-0.099639885 -0.19972561 -0.066858746 0.10064548 0.16435081 -0.20056373 -0.071771435 0.13084966
00000000: 40c6 29bd 12a0 74bc d2cc 0abe 3214 79bc
00000010: a6bc 953d e6de c33d 3b80 3cbd a51f 6abe
00000020: 6984 43be ce70 0e39 2902 fa3d d0fa f03d
00000030: 750b 47be 8e34 8cbd c240 5e3d e7da 443e
00000040: ff0f ccbd df84 4cbe 3ded 88bd 381f ce3d
00000050: 944b 283e 9460 4dbe e7fc 92bd 74fd 053e

BCBlocks.0.0.f1.0.block.1.weight f4 [8]
0.12308618 0.17853117 0.26038596 0.19640079 0.29319787 0.30272105 0.28101477 0.169954
00000000: 9b14 fc3d e0d0 363e 4f51 853e 4a1d 493e
00000010: 081e 963e 41fe 9a3e 2be1 8f3e 6c08 2e3e

BCBlocks.0.0.f1.0.block.1.bias f4 [8]
-0.10483977 -0.09284617 0.034667157 -0.051760145 0.053484954 -0.061254334 -0.11705332 0.09661434
00000000: 3cb6 d6bd 2226 bebd 26ff 0d3d 7202 54bd
00000010: 0a13 5b3d d3e5 7abd a7b9 efbd bddd c53d

BCBlocks.0.0.f1.0.block.1.running_mean f4 [8]
-0.013446887 0.008963351 -0.010509413 0.02911041 -0.008759211 0.0003498727 -0.00825825 -0.033237323
00000000: 5550 5cbc 05db 123c ac2f 2cbc f478 ee3c
00000010: cb82 0fbc 1e6f b739 9c4d 07bc dc23 08bd

BCBlocks.0.0.f1.0.block.1.running_var f4 [8]
0.00084344496 0.0008042345 0.009209334 0.00053336436 0.0008946726 0.0003010245 0.00030840567 0.0038450952
00000000: a21a 5d3a 44d3 523a bfe2 163c 7ad1 0b3a
00000010: 7688 6a3a d3d2 9d39 82b1 a139 fefd 7b3b

BCBlocks.0.0.f1.1.weight f4 [8, 8, 1, 1]
0.017269297 0.012501071 -0.10788164 -0.023434056 -0.039468292 0.21600579 0.06544706 0.12891772
0.12721908 -0.12867862 -0.08556464 -0.07537099 0.04751003 0.08454272 0.01860217 -0.023298401
-0.14315502 -0.08117949 0.1759127 -0.08215048 0.031017976 -0.015123996 -0.09238717 0.14719933
0.015707487 -0.096511535 0.009942889 -0.18712017 -0.019053536 -0.017401349 -0.023198944 -0.054813508
-0.08903559 -0.0063651167 0.20365761 -0.039431922 0.34042954 -0.09845021 -0.20457667 -0.012461176
0.0066285734 -0.006569894 0.014547653 0.0024988407 -0.017644636 0.03280789 0.057868563 0.094387874
-0.038262073 0.017543523 0.025811866 -0.11254646 0.017037723 0.05149163 -0.2592176 -0.10310359
0.009891027 -0.052973926 0.06782729 0.03085306 0.061570734 -0.053953722 -0.03227585 0.11252771
00000000: 5778 8d3c 4bd1 4c3c 0df1 dcbd c7f8 bfbc
00000010: 81a9 21bd 9f30 5d3e 1c09 863d 0203 043e
00000020: b845 023e 54c4 03be 843c afbd 1b5c 9abd
00000030: e199 423d bc24 ad3d 9463 983c 4adc bebc
00000040: 3b97 12be 6f41 a6bd 7522 343e 833e a8bd
00000050: 6919 fe3c a3ca 77bc 7c35 bdbd 6cbb 163e
00000060: fdac 803c d7a7 c5bd 80e7 223c 6e9c 3fbe
00000070: 2916 9cbc 468d 8ebc b60b bebc 2184 60bd
00000080: 4b58 b6bd 7892 d0bb 9f8b 503e 5e83 21bd
00000090: c84c ae3e 44a0 c9bd 8c7c 51be f629 4cbc
000000a0: 8134 d93b 4448 d7bb 4759 6e3c 97c3 233b
000000b0: 7c8b 90bc 9161 063d 9607 6d3d 6e4e c13d
000000c0: b1b8 1cbd 6fb7 8f3c 6873 d33c c27e e6bd
000000d0: b292 8b3c e3e8 523d 2bb8 84be fa27 d3bd
000000e0: f90d 223c 30fb 58bd 09e9 8a3d 8ebf fc3c
000000f0: 9831 7c3d 94fe 5cbd af33 04bd ee74 e63d

BCBlocks.0.1.f2.0.block.0.weight f4 [8, 1, 3, 1]
0.25461447 0.17634319 -0.24646883 -0.28617507 -0.22703615 0.14823823 0.42131263 -0.051462047
0.03747984 -0.44464454 -0.036772966 0.17231064 0.16842096 0.2559993 0.36305153 0.13262011
-0.16882195 -0.27883136 0.4430034 -0.14422333 0.04787795 -0.4321224 0.4655507 0.3040893
00000000: d45c 823e 4f93 343e 5362 7cbe 8a85 92be
00000010: 2a7c 68be c3cb 173e 4ab6 d73e dec9 52bd
00000020: 7684 193d 73a8 e3be 409f 16bd 3372 303e
00000030: 8b76 2c3e 5712 833e e4e1 b93e 91cd 073e
00000040: a9df 2cbe fcc2 8ebe 57d1 e23e 48af 13be
00000050: ab1b 443d 263f ddbe a95c ee3e 98b1 9b3e

BCBlocks.0.1.f2.0.block.1.ssnorm.weight f4 [40]
0.2759623 0.20901518 0.3400984 0.07733303 0.1641771 0.28779283 0.3652291 0.26157397
0.3040996 0.38170514 0.36583307 0.28764334 0.096035965 0.14810528 0.12337432 0.20634715
0.27415967 0.32539675 0.34441185 0.32923555 0.30409467 0.10869993 0.25331643 0.11445875
0.076591246 0.34026307 0.24690495 0.25269032 0.2754705 0.24033256 0.083208814 0.17924212
0.35218397 0.2536563 0.19652459 0.24147975 0.51274806 0.3025981 0.2559874 0.31357545
00000000: ee4a 8d3e 1308 563e 6121 ae3e c860 9e3d
00000010: 0b1e 283e 9559 933e 4fff ba3e 06ed 853e
00000020: f1b2 9b3e db6e c33e 794e bb3e fd45 933e
00000030: 81ae c43d e9a8 173e adab fc3d ab4c 533e
00000040: a85e 8c3e 679a a63e c056 b03e 9091 a83e
00000050: 4cb2 9b3e 129e de3d b1b2 813e 5969 ea3d
00000060: dfdb 9c3d f636 ae3e a7d4 7c3e a060 813e
00000070: 780a 8d3e bd19 763e 6269 aa3d 3f8b 373e
00000080: 7551 b43e 3ddf 813e be3d 493e 7846 773e
00000090: 7543 033f 23ee 9a3e c810 833e f68c a03e

BCBlocks.0.1.f2.0.block.1.ssnorm.bias f4 [40]
0.0007829409 0.12056933 -0.08724173 -0.07007711 0.13180296 -0.057294346 0.028302668 0.08579835
0.04966344 0.12017959 0.13163103 0.027857212 -0.19953224 -0.015292356 0.012607559 0.1420543
0.09917424 -0.05186854 0.08274627 0.0788924 -0.052996706 -0.21649118 0.22189635 0.12506887
0.034376696 0.14422257 0.01698231 0.17262146 0.0415916 0.07728621 0.4642966 -0.032920144
-0.14615285 -0.08139362 0.030719955 0.2791291 0.1499496 0.036381267 0.013871111 0.06391865
00000000: 463e 4d3a 0eed f63d cbab b2bd 9684 8fbd
00000010: 5bf7 063e 7aad 6abd ffda e73c 0cb7 af3d
00000020: e46b 4b3d b820 f63d 49ca 063e cf34 e43c
00000030: 2e52 4cbe ca8c 7abc ef8f 4e3c af76 113e
00000040: dd1b cb3d 1b74 54bd e076 a93d 5792 a13d
00000050: 1313 59bd ddaf 5dbe cc38 633e 0e12 003e
00000060: 94ce 0c3d 15af 133e 7c1e 8b3c aec3 303e
00000070: f45b 2a3d 3c48 9e3d 49b8 ed3e 46d7 06bd
00000080: 18a9 15be b3b1 a6bd 6aa8 fb3c 02ea 8e3e
00000090: 638c 193e 8604 153d a843 633c c8e7 823d

BCBlocks.0.1.f2.0.block.1.ssnorm.running_mean f4 [40]
0.0021658603 0.009915445 0.046271168 0.028067933 0.043532167 -0.039327137 -0.03579744 -0.11939061
-0.05658143 -0.006963155 0.034993693 0.05022309 0.034607917 0.026305672 0.07867904 -0.030142935
-0.052534577 -0.083451085 -0.07335625 -0.048448995 0.10630943 0.2356382 0.11232615 0.10207357
0.036316965 -0.05961497 -0.02321517 -0.019522535 -0.0061810585 -0.0103551615 0.039522428 0.038202893
0.022149583 0.014318414 0.025807833 0.16592385 0.077231176 0.1725185 0.11630363 0.02030344
00000000: 1bf1 0d3b 6474 223c d686 3d3d b9ee e53c
00000010: c94e 323d 7e15 21bd 56a0 12bd 1083 f4bd
00000020: eec1 67bd 2e2b e4bb 8c55 0f3d bab6 4d3d
00000030: 08c1 0d3d fe7e d73c 7a22 a13d 51ee f6bc
00000040: 7f2e 57bd 67e8 aabd cd3b 96bd 7472 46bd
00000050: c2b8 d93d 244b 713e 410b e63d f30b d13d
00000060: 19c1 143d d42e 74bd bd2d bebc b9ed 9fbc
00000070: 7a8a cabb b2a8 29bc 45e2 213d a37a 1c3d
00000080: 0b73 b53c c897 6a3c f36a d33c f1e7 293e
00000090: 612b 9e3d b1a8 303e 9930 ee3d 6653 a63c

BCBlocks.0.1.f2.0.block.1.ssnorm.running_var f4 [40]
0.0007279327 0.0010389573 0.0030237772 0.001559259 0.002892468 0.0023435215 0.0017400188 0.0047086817
0.0027076842 0.00031409477 0.0033815557 0.008457526 0.004116627 0.0027477252 0.019833907 0.013027341
0.021334697 0.029971087 0.0060353978 0.007874192 0.012937467 0.05838018 0.03763836 0.01172924
0.0038980732 0.016353566 0.005063148 0.0024852292 0.0005253074 0.0007590685 0.0068459706 0.00574997
0.0036957723 0.0017859014 0.0037340557 0.027096368 0.011143134 0.012158338 0.010417558 0.024547132
00000000: bdd2 3e3a 9f2d 883a 902a 463b 0d60 cc3a
00000010: 8f8f 3d3b c495 193b 5811 e43a 494b 9a3b
00000020: 6773 313b 16ad a439 179d 5d3b 6f91 0a3c
00000030: c5e4 863b 2e13 343b b87a a23c a170 553c
00000040: 1ac6 ae3c ed85 f53c 96c4 c53b c102 013c
00000050: abf7 533c 0e20 6f3d ae2a 1a3d 002c 403c
00000060: d176 7f3b eaf7 853c c4e8 a53b 3adf 223b
00000070: c8b4 093a 3afc 463a 2a54 e03b 3f6a bc3b
00000080: c534 723b e814 ea3a 0fb7 743b 34f9 dd3c
00000090: b191 363c c433 473c 68ae 2a3c 1117 c93c

BCBlocks.0.1.f1.0.block.0.weight f4 [8, 1, 1, 3]
0.17949766 0.00081411697 0.059426878 -0.04297222 -0.054345433 -0.06672268 -0.09809829 -0.08613309
-0.020985836 -0.0074364957 0.07835079 0.1566414 -0.10092405 -0.15009469 0.023860104 0.1370933
-0.014328376 0.044045918 -0.13263293 -0.020953296 -0.14772639 0.12462835 -0.2053591 -0.026829252
00000000: 3cce 373e 776a 553a 9969 733d a303 30bd
00000010: 5199 5ebd e7a5 88bd c2e7 c8bd 8c66 b0bd
00000020: 7dea abbc d9ad f3bb 6176 a03d 9a66 203e
00000030: 45b1 cebd 6cb2 19be 4476 c33c 3062 0c3e
00000040: 91c1 6abc 7e69 343d edd0 07be 3fa6 abbc
00000050: 9645 17be 263d ff3d a849 52be 05c9 dbbc

BCBlocks.0.1.f1.0.block.1.weight f4 [8]
0.2863579 0.24883755 0.3248988 0.38074365 0.32620952 0.15999982 0.4314624 0.28116587
00000000: 819d 923e 45cf 7e3e 2359 a63e d5f0 c23e
00000010: ef04 a73e fed6 233e a4e8 dc3e f9f4 8f3e

BCBlocks.0.1.f1.0.block.1.bias f4 [8]
0.047747456 -0.0043413225 0.008132467 -0.047772937 0.09550031 0.0020546254 -0.026371323 0.13469179
00000000: d692 433d a741 8ebb 0a3e 053c 8ead 43bd
00000010: ab95 c33d e5a6 063b ac08 d8bc a5ec 093e

BCBlocks.0.1.f1.0.block.1.running_mean f4 [8]
0.004467463 -0.0073301555 0.001653506 0.016030451 -0.005124724 0.014985384 -0.01415494 -0.012250216
00000000: cc63 923b cd31 f0bb 74ba d83a 4b52 833c
00000010: 4ded a7bb 4285 753c 1fea 67bc 21b5 48bc

BCBlocks.0.1.f1.0.block.1.running_var f4 [8]
0.00024269985 0.0007225679 0.0008092118 0.00023796769 0.00041522644 0.00021098554 0.0002724142 0.0005759841
00000000: 3f7d 7e39 b66a 3d3a 4921 543a f786 7939
00000010: c0b2 d939 003c 5d39 d1d2 8e39 a3fd 163a

BCBlocks.0.1.f1.1.weight f4 [8, 8, 1, 1]
-0.1268306 0.15228634 0.052303802 0.06701472 0.06576199 -0.033702258 0.03351972 -0.04748677
0.035862535 0.1504436 0.05730383 0.012493184 0.12308895 0.13089998 -0.25328588 -0.04381517
0.13136397 -0.10668073 -0.0331552 -0.10182804 0.16117905 0.044137426 0.007133332 0.08399652
0.17560226 0.0031872238 -0.031552896 -0.05775091 0.12253534 0.07607687 -0.18780214 0.13968888
0.046828065 -0.018442495 0.19031249 -0.15191038 0.2576052 0.09989501 -0.2395372 0.032528684
-0.104712136 -0.09774095 -0.10309264 0.0798297 -0.045746922 -0.06965544 0.08913305 -0.15759712
-0.10189157 -0.10544413 0.22767283 -0.14220403 0.12450065 0.066513754 0.014467269 0.113263905
-0.022090819 -0.020257046 0.113376394 -0.048158582 0.06532147 0.047103547 -0.11904714 0.33163765
00000000: e1df 01be f3f0 1b3e 833c 563d 033f 893d
00000010: 39ae 863d 610b 0abd f94b 093d 7d81 42bd
00000020: 98e4 123d e30d 1a3e 6cb7 6a3d 36b0 4c3c
00000030: 0f16 fc3d a50a 063e b0ae 81be 8977 33bd
00000040: 4784 063e 6d7b dabd bfcd 07bd 388b d0bd
00000050: 1f0c 253e 72c9 343d babe e93b 5e06 ac3d
00000060: 14d1 333e bee0 503b 9c3d 01bd 388c 6cbd
00000070: cff3 fa3d 31ce 9b3d 344f 40be 9a0a 0f3e
00000080: c9ce 3f3d b714 97bc 47e1 423e 658e 1bbe
00000090: d4e4 833e c195 cc3d 3d49 75be cc3c 053d
000000a0: 5173 d6bd 682c c8bd 3c22 d3bd c17d a33d
000000b0: 2061 3bbd 83a7 8ebd 638b b63d 2461 21be
000000c0: 87ac d0bd 18f3 d7bd 1123 693e ef9d 11be
000000d0: 32fa fe3d 5d38 883d 2008 6d3c e8f6 e73d
000000e0: cef7 b4bc 1bf2 a5bc e231 e83d ef41 45bd
000000f0: 43c7 853d a6ef 403d fdce f3bd 69cc a93e

BCBlocks.1.0.f2.0.block.0.weight f4 [12, 8, 1, 1]
0.018745169 -0.09511318 -0.348315 -0.17688031 -0.27297732 -0.24319288 -0.04727031 0.41030675
0.14662239 -0.33994323 -0.009533757 0.13518699 0.059678096 -0.21618524 0.2305178 0.5449369
-0.19115208 0.08548238 0.30629978 0.070928656 0.22627233 0.20248508 -0.18850166 -0.21524855
0.019278351 -0.010272516 -0.36156106 -0.34689417 -0.20443724 0.061466947 -0.039604697 -0.14732452
-0.15937693 -0.04566475 0.21715038 0.02847376 -0.0054273806 -0.29332677 0.0067368494 0.4219101
-0.41210628 -0.056624483 0.107593685 -0.12807044 0.006553413 -0.025499722 0.29424667 -0.36640647
-0.028377738 0.021813782 0.2623655 0.24146365 0.20737149 0.0782806 -0.34068516 -0.007239741
-0.12131663 0.17211494 0.05274855 0.43132633 0.28718168 -0.12268724 0.2870393 0.05548352
-0.1044363 0.2634448 0.15764055 0.20793994 0.31033042 -0.08087104 0.018518396 -0.21424249
0.15104099 -0.045176934 -0.18670483 0.33836412 -0.3000351 -0.004504661 -0.50140375 0.25360918
-0.3672398 0.27797812 0.21597613 0.18672274 0.45953375 0.11968559 0.08763209 0.32234994
-0.052785255 -0.21748403 -0.056976248 -0.18881825 0.042486478 -0.28257594 0.15011771 0.39400664
00000000: 788f 993c b3ca c2bd 5856 b2be 1d20 35be
00000010: afc3 8bbe 8e07 79be 839e 41bd ba13 d23e
00000020: 2e24 163e 0a0d aebe 7a33 1cbc 756e 0a3e
00000030: 0571 743d aa5f 5dbe dc0c 6c3e fc80 0b3f
00000040: 5fbd 43be 6311 af3d 53d3 9c3e 0b43 913d
00000050: efb3 673e 4058 4f3e 9406 41be 1e6a 5cbe
00000060: a2ed 9d3c 0e4e 28bc 881e b9be 1d9c b1be
00000070: ff57 51be c4c4 7b3d 8938 22bd 3ddc 16be
00000080: b533 23be f60a 3bbd ab5c 5e3e cd41 e93c
00000090: 2bd8 b1bb ed2e 96be cac0 dc3b 9a04 d83e
000000a0: 98ff d2be 13ef 67bd 145a dc3d e624 03be
000000b0: 03be d63b cbe4 d0bc 80a7 963e a199 bbbe
000000c0: 6e78 e8bc d1b2 b23c c554 863e 3f42 773e
000000d0: 3159 543e 9451 a03d 496e aebe 593b edbb
000000e0: da74 f8bd e63e 303e dd0e 583d ced6 dc3e
000000f0: 7a09 933e 7343 fbbd d1f6 923e b042 633d
00000100: b3e2 d5bd 3de2 863e 866c 213e 35ee 543e
00000110: a1e3 9e3e b79f a5bd e4b3 973c 6262 5bbe
00000120: 7daa 1a3e 730b 39bd 8d2f 3fbe 103e ad3e
00000130: 339e 99be d69b 93bb ff5b 00bf 10d9 813e
00000140: db06 bcbe 2653 8e3e d928 5d3e 3f34 3f3e
00000150: 0248 eb3e b81d f53d 7478 b33d 0d0b a53e
00000160: 5a35 58bd 22b4 5ebe ed5f 69bd 9259 41be
00000170: 4d06 2e3d cbad 90be 75b8 193e 3dbb c93e

BCBlocks.1.0.f2.0.block.1.weight f4 [12]
0.36076748 0.31711963 0.31555808 0.3405333 0.2711227 0.29085472 0.2473334 0.32257476
0.26622012 0.2941081 0.12212663 0.15539952
00000000: 84b6 b83e 815d a23e d490 a13e 615a ae3e
00000010: 98d0 8a3e e9ea 943e f844 7d3e 8528 a53e
00000020: 014e 883e 5695 963e 871d fa3d 0d21 1f3e

BCBlocks.1.0.f2.0.block.1.bias f4 [12]
-0.109898046 0.0913201 -0.07187627 0.07115118 0.12591957 0.11874004 0.17420477 0.095640115
0.1936827 0.231652 0.2284213 0.3008838
00000000: 3a12 e1bd 0806 bb3d de33 93bd b6b7 913d
00000010: 0ff1 003e fa2d f33d bc62 323e f7de c33d
00000020: c254 463e 2f36 6d3e 46e7 693e 710d 9a3e

BCBlocks.1.0.f2.0.block.1.running_mean f4 [12]
-0.0486651 0.3022587 -0.009506973 -0.2944546 0.16423088 -0.24245016 0.096093774 0.3028302
0.08425542 0.027078694 0.40388525 0.06306532
00000000: 0e55 47bd a7c1 9a3e 23c3 1bbc c1c2 96be
00000010: 242c 283e db44 78be d0cc c43d 8f0c 9b3e
00000020: 1b8e ac3d 23d4 dd3c 0cca ce3e 6428 813d

BCBlocks.1.0.f2.0.block.1.running_var f4 [12]
0.065072775 0.0817308 0.043778483 0.06061861 0.07210542 0.047764335 0.04493579 0.048525948
0.04077339 0.0679027 0.15064451 0.04968978
00000000: e044 853d 7a62 a73d 1151 333d 384b 783d
00000010: 02ac 933d 89a4 433d 970e 383d 25c3 463d
00000020: 0002 273d 9210 8b3d 8e42 1a3e 8387 4b3d

BCBlocks.1.0.f2.1.block.0.weight f4 [12, 1, 3, 1]
0.09730648 0.17682712 0.38851982 0.5025433 0.2735189 0.054848418 -0.03766235 -0.24497315
-0.15550007 -0.18515347 -0.0833252 -0.24942867 0.44465625 0.041932765 -0.11212806 -0.15259126
-0.12350232 -0.1800136 0.20499496 -0.40491626 -0.084839374 -0.19417612 -0.17776269 -0.16671763
-0.29979253 -0.14066917 0.035787206 -0.27553365 -0.2998913 -0.15509957 0.0043021655 -0.14307326
0.6987326 -0.32544962 -0.015929764 -0.26616964
00000000: 9f48 c73d 2b12 353e 12ec c63e ada6 003f
00000010: ab0a 8c3e bca8 603d d643 1abd 3eda 7abe
00000020: 693b 1fbe df98 3dbe 67a6 aabd 3b6a 7fbe
00000030: fca9 e33e b1c1 2b3d 65a3 e5bd e240 1cbe
00000040: c9ee fcbd 7c55 38be 33ea 513e 2f51 cfbe
00000050: 44c0 adbd 1bd6 46be 6c07 36be 07b8 2abe
00000060: 687e 99be 940b 10be 9b95 123d bf12 8dbe
00000070: 5a8b 99be 6cd2 1ebe 2ef9 8c3b cc81 12be
00000080: 24e0 323f 55a1 a6be 237f 82bc 6347 88be

BCBlocks.1.0.f2.1.block.1.ssnorm.weight f4 [60]
0.2573556 0.19875658 0.32707846 0.22803618 0.5030907 0.50016546 0.39280605 0.21931645
0.28990117 0.32730442 0.47131246 0.40853494 0.13293624 0.052601673 0.17842825 0.32009545
0.31603226 0.22160077 0.18679975 0.14179118 0.23768504 0.23504876 0.13931634 0.24738304
0.3136391 0.31023237 0.3137368 0.21949944 0.14281836 0.24867864 0.1139227 0.30510995
0.22879189 0.17184055 0.0741974 0.2411288 0.21679386 0.35282576 0.118241034 0.5030215
-0.10884099 0.22029915 0.43023875 0.20060946 -0.000687201 0.10494374 0.30268702 0.4094695
0.19573101 0.2860648 0.44308043 0.4134505 0.23667361 0.05880242 0.1847217 0.2913994
0.24100685 0.22385752 0.26206717 0.13860928
00000000: 1dc4 833e d886 4b3e d476 a73e 5182 693e
00000010: 8dca 003f d80a 003f e01d c93e 7e94 603e
00000020: ed6d 943e 7294 a73e de4f f13e 7e2b d13e
00000030: 7020 083e da74 573d e5b5 363e 8de3 a33e
00000040: fbce a13e 50eb 623e 6f48 3f3e b531 113e
00000050: b563 733e 9fb0 703e f1a8 0e3e fb51 7d3e
00000060: 4e95 a03e c7d6 9e3e 1ca2 a03e 76c4 603e
00000070: fa3e 123e 9da5 7e3e 4e50 e93d 5f37 9c3e
00000080: 6c48 6a3e f8f6 2f3e cef4 973d 78ea 763e
00000090: 36ff 5d3e 94a5 b43e 5b28 f23d 04c6 003f
000000a0: 06e8 debd 1a96 613e 4148 dc3e 916c 4d3e
000000b0: 4725 34ba beec d63d cbf9 9a3e fca5 d13e
000000c0: b66d 483e 1677 923e 70db e23e c9af d33e
000000d0: 915a 723e ceda 703d af27 3d3e 4d32 953e
000000e0: 80ca 763e e83a 653e ab2d 863e 97ef 0d3e

BCBlocks.1.0.f2.1.block.1.ssnorm.bias f4 [60]
-0.025162822 -0.07543635 0.16385818 -0.052615494 0.07247319 -0.23126335 0.23840193 0.051025413
0.13043304 0.19501977 -0.11744928 0.032125045 0.20323467 0.29559085 0.19820069 0.045323513
0.16968088 0.22736026 0.1400672 0.073722534 0.08430946 0.26199728 0.012469508 -0.12717368
-0.13569242 -0.093294516 0.07439988 0.1422983 0.100783594 0.14873974 0.065348804 0.2594114
0.41316277 -0.04052018 -0.16094777 0.14164862 0.12927304 0.2276115 0.07469414 0.043815836
-0.07289204 0.116776206 0.011296599 0.033897694 -0.097998 -0.043719254 0.3747774 0.114871286
-0.0750803 0.16399364 0.35595608 0.25016287 0.37523544 -0.040226873 0.07790869 -0.086298086
0.12857166 0.37640244 0.12881364 0.008326314
00000000: 4322 cebc 607e 9abd 70ca 273e 5883 57bd
00000010: d36c 943d 4dd0 6cbe a31f 743e 0600 513d
00000020: 3d90 053e 43b3 473e 4089 f0bd 8d95 033d
00000030: c01c 503e af57 973e 1ff5 4a3e 26a5 393d
00000040: d3c0 2d3e 21d1 683e c76d 0f3e d7fb 963d
00000050: 70aa ac3d 8224 863e e84c 4c3c d139 02be
00000060: f4f2 0abe 3211 bfbd f75e 983d a5b6 113e
00000070: a167 ce3d 3b4f 183e 98d5 853d 92d1 843e
00000080: 128a d33e 7df8 25bd 7ecf 24be 560c 113e
00000090: 2760 043e fd12 693e 3ef9 983d 3c78 333d
000000a0: 6c48 95bd 5d28 ef3d 5f15 393c 4fd8 0a3d
000000b0: 2db3 c8bd f612 33bd d3e2 bf3e a341 eb3d
000000c0: b3c3 99bd f3ed 273e e03f b63e 5915 803e
000000d0: dc1e c03e efc4 24bd 978e 9f3d 0dbd b0bd
000000e0: 4aa8 033e d2b7 c03e b9e7 033e 186b 083c

BCBlocks.1.0.f2.1.block.1.ssnorm.running_mean f4 [60]
0.04765322 0.07427379 0.05057891 0.040762864 0.040802147 0.18904024 0.16468792 0.118015856
0.08710087 0.11751374 -0.028658437 -0.054381873 -0.04280311 -0.02842159 -0.028594885 -0.038821362
-0.089665495 -0.1043393 -0.0878788 -0.09815905 0.0413026 0.06970848 0.07753801 0.037831943
0.08238054 -0.10133998 -0.080540955 -0.03874867 -0.06537004 -0.09380113 -0.03148771 -0.08135451
-0.06956556 -0.07854945 -0.033894356 -0.105702944 -0.10660582 -0.0990851 -0.06917832 -0.052881185
-0.027575146 -0.097546406 -0.10538116 -0.09154074 -0.06792282 -0.08158985 -0.2185417 -0.2548272
-0.24395102 -0.21310441 0.16135009 0.12894861 0.11546388 0.12794533 0.10976841 -0.1673504
-0.19449537 -0.17051409 -0.17324097 -0.178257
00000000: 0630 433d db1c 983d d52b 4f3d f6f6 263d
00000010: 2720 273d c493 413e f3a3 283e 4cb2 f13d
00000020: f161 b23d 0bab f03d 19c5 eabc 87bf 5ebd
00000030: 5052 2fbd 65d4 e8bc d23f eabc 2603 1fbd
00000040: 8ba2 b7bd d8af d5bd cdf9 b3bd 9d07 c9bd
00000050: ea2c 293d 52c3 8e3d 40cc 9e3d abf5 1a3d
00000060: 21b7 a83d 568b cfbd a8f2 a4bd edb6 1ebd
00000070: bae0 85bd cf1a c0bd 42f9 00bd 319d a6bd
00000080: 6378 8ebd 89de a0bd cfd4 0abd c97a d8bd
00000090: 2754 dabd 21ed cabd 5dad 8dbd f199 58bd
000000a0: 46e5 e1bc 69c6 c7bd 14d2 d7bd b679 bbbd
000000b0: 1f1b 8bbd 9418 a7bd 65c9 5fbe b678 82be
000000c0: 4cce 79be 0b38 5abe f538 253e 1b0b 043e
000000d0: 5478 ec3d 1a04 033e 43ce e03d e75d 2bbe
000000e0: cb29 47be 3f9b 2ebe 1566 31be 0189 36be

BCBlocks.1.0.f2.1.block.1.ssnorm.running_var f4 [60]
0.0075342986 0.0148358 0.0060838605 0.0064663235 0.007818705 0.045245524 0.05709493 0.038134255
0.022733552 0.03364279 0.004784868 0.011907211 0.0087945005 0.0034522188 0.0048022126 0.0016226033
0.0044844705 0.0036743004 0.0026204796 0.0038107985 0.012538855 0.013580032 0.0110126315 0.0040339264
0.012835128 0.006028174 0.005179874 0.0028084102 0.0030537487 0.004203255 0.003087594 0.0069144485
0.008018132 0.0045236372 0.0048778644 0.006735996 0.020434847 0.024890255 0.009029404 0.0048372173
0.0022907192 0.013371355 0.015541196 0.0064696907 0.004721908 0.00460965 0.020094512 0.013397109
0.008945811 0.009456874 0.00543 0.008615405 0.006452315 0.0027236114 0.0023101177 0.008694391
0.007839341 0.00588705 0.004317491 0.0037612848
00000000: 47e2 f63b db11 733c 1f5b c73b 74e3 d33b
00000010: 071a 003c 5f53 393d 60dc 693d aa32 1c3d
00000020: b73b ba3c 06cd 093d 62ca 9c3b 7616 433c
00000030: cf16 103c 9f3e 623b e15b 9d3b 88ad d43a
00000040: 77f2 923b 88cc 703b 5abc 2b3b 97be 793b
00000050: c56f 4d3c c87e 5e3c 536e 343c 072f 843b
00000060: 6e4a 523c fd87 c53b efbb a93b 4e0d 383b
00000070: 6721 483b 75bb 893b 3b59 4a3b 9992 e23b
00000080: 7c5e 033c 053b 943b 7ed6 9f3b a1b9 dc3b
00000090: fb66 a73c a6e6 cb3c 11f0 133c 8581 9e3b
000000a0: e41f 163b 8713 5b3c 80a0 7e3c b3ff d33b
000000b0: 3cba 9a3b 8c0c 973b 3f9d a43c 8c7f 5b3c
000000c0: 7391 123c 01f1 1a3c 24ee b13b a127 0d3c
000000d0: f16d d33b 9e7e 323b 5865 173b eb72 0e3c
000000e0: 9470 003c 28e8 c03b bd79 8d3b e37f 763b

BCBlocks.1.0.f1.0.block.0.weight f4 [12, 1, 1, 3]
-0.08163019 -0.12892361 -0.0929759 0.060905293 0.04265399 -0.29743272 -0.4626784 -0.10844511
0.2737889 0.24331358 -0.01457445 0.13095483 -0.152322 0.100041 0.13814908 0.027171435
-0.17756659 -0.06482107 0.15561529 0.033618007 0.04910955 0.3265043 -0.3846292 0.0069820685
0.2562549 -0.3152076 0.25331172 -0.10785312 0.22706418 -0.031524327 0.19386102 -0.15723567
-0.10454538 -0.17833531 -0.11021952 -0.026281646
00000000: bb2d a7bd 8d04 04be 266a bebd d477 793d
00000010: f3b5 2e3d 1a49 98be 2fe4 ecbe 7818 debd
00000020: 0f2e 8c3e 3227 793e adc9 6ebc 0619 063e
00000030: 4cfa 1bbe 4ce2 cc3d f476 0d3e a196 de3c
00000040: 04d4 35be e9c0 84bd 9d59 1f3e 09b3 093d
00000050: 1827 493d 922b a73e 1eee c4be d6c9 e43b
00000060: d833 833e e462 a1be 13b2 813e 19e2 dcbd
00000070: 8383 683e a71f 01bd 8183 463e 6302 21be
00000080: e31b d6bd 889d 36be c6ba e1bd 9b4c d7bc

BCBlocks.1.0.f1.0.block.1.weight f4 [12]
0.3677417 0.34256154 0.42905855 0.31055298 0.22240926 0.22998258 0.19471227 0.33664453
0.41552848 0.22471543 0.3075894 0.2445906
00000000: a448 bc3e 3a64 af3e 90ad db3e cd00 9f3e
00000010: 41bf 633e 8e80 6b3e a762 473e ac5c ac3e
00000020: 26c0 d43e cd1b 663e 5c7c 9d3e f575 7a3e

BCBlocks.1.0.f1.0.block.1.bias f4 [12]
0.08653045 0.16182072 -0.09299968 0.038309757 -0.058236413 -0.022797123 0.01652001 0.060638275
-0.020635307 0.0018937979 -0.04551387 -0.043288622
00000000: e036 b13d 55b4 253e 9e76 bebd b1ea 1c3d
00000010: 4e89 6ebd 08c1 babc f954 873c d75f 783d
00000020: 600b a9bc 5039 f83a c06c 3abd 694f 31bd

BCBlocks.1.0.f1.0.block.1.running_mean f4 [12]
-0.0042924425 -0.015921172 -0.035491083 0.0462345 0.0021937748 -0.016261104 0.024989957 -0.008009209
-0.0008439816 0.008867511 -0.014321834 -0.035210684
00000000: 9ea7 8cbb 1e6d 82bc 195f 11bd 6360 3d3d
00000010: 6fc5 0f3b 0236 85bc bdb7 cc3c 0f39 03bc
00000020: a53e 5dba 0949 113c 20a6 6abc 1439 10bd

BCBlocks.1.0.f1.0.block.1.running_var f4 [12]
0.0020178505 0.0034178458 0.004082848 0.002816152 0.00041483264 0.000917798 0.00027987518 0.0014797497
0.0007600229 0.0008603595 0.0005421467 0.0018805384
00000000: ea3d 043b f0fd 5f3b 69c9 853b 318f 383b
00000010: e57d d939 6298 703a 36bc 9239 29f4 c13a
00000020: 463c 473a c089 613a d91e 0e3a 667c f63a

BCBlocks.1.0.f1.1.weight f4 [12, 12, 1, 1]
-0.122702464 -0.1441103 0.23084807 -0.054094605 0.1083402 -0.0275272 0.010885235 0.030312438
0.05473916 -0.014796203 -0.11112526 -0.032284014 0.0748281 0.26029482 0.07080933 -0.0765109
0.022830857 0.10896022 0.061287735 0.24810989 0.24195552 0.05595883 -0.08414009 -0.24613108
0.029568352 0.10877635 0.10369008 -0.13997535 -0.065733075 -0.21397625 0.08161979 -0.014492851
0.06294503 0.08391372 0.01670737 0.18088757 0.0052342415 -0.036341164 0.12113125 0.12982227
0.020487325 0.09279951 0.018635085 0.062836505 0.18077922 0.035542894 -0.018917175 0.061789885
0.26477125 -0.045385588 -0.2951536 0.21168788 0.0059492593 0.03083716 0.08444514 -0.11418033
-0.11204104 -0.10205312 -0.034447 -0.12545517 0.11034718 -0.2630526 -0.1979258 0.08837986
0.005218381 -0.03896266 0.009641542 0.017536769 0.1333538 0.002931897 0.029598463 0.13354874
0.029567402 0.12971309 0.21547578 0.009060339 -0.008138824 0.08659803 0.013356297 0.032442395
-0.19319813 -0.06159496 -0.06669892 -0.06989086 -0.104733676 -0.13503778 -0.054057743 -0.1070956
0.038071435 0.0806566 0.013820823 0.19187525 0.103416584 0.122307576 -0.10381262 0.0037765258
-0.24933547 0.04888539 0.10565296 -0.05154963 -0.09465022 0.09246769 -0.031159237 -0.25980923
-0.104983546 -0.08809793 -0.18958254 0.01139994 -0.12352942 -0.0009866001 -0.08840758 0.13828318
-0.11827787 -0.08246385 0.10833084 -0.03518061 0.015219767 -0.07216284 0.05858034 0.07526009
-0.013075948 0.03692421 -0.15848288 0.24511947 -0.18599948 0.024915107 0.1409322 -0.20295934
0.12000517 0.030609459 -0.079526715 -0.037704565 -0.14834793 -0.14797008 0.2203955 0.00975604
0.20181799 -0.06487916 -0.09209323 0.155222 -0.06151895 -0.10512116 0.10472759 0.113101654
00000000: 6e4b fbbd a791 13be 7063 6c3e 4e92 5dbd
00000010: 77e1 dd3d b980 e1bc fc57 323c ca51 f83c
00000020: 2b36 603d c66b 72bc a495 e3bd 3e3c 04bd
00000030: 7a3f 993d 5d45 853e 7b04 913d bfb1 9cbd
00000040: c707 bb3c 8926 df3d d908 7b3d 8510 7e3e
00000050: 30c3 773e 1635 653d a451 acbd c909 7cbe
00000060: 5439 f23c 23c6 de3d 775b d43d b355 0fbe
00000070: 109f 86bd 971c 5bbe 4728 a73d 6c73 6dbc
00000080: 53e9 803d f5da ab3d e5dd 883c 973a 393e
00000090: 0084 ab3b 79da 14bd a913 f83d 21f0 043e
000000a0: 09d5 a73c ab0d be3d 9ba8 983c 6db0 803d
000000b0: 301e 393e 6d95 113d 31f8 9abc 6417 7d3d
000000c0: 1990 873e 3de6 39bd 5f1e 97be b5c4 583e
000000d0: 01f2 c23b 369e fc3c 93f1 ac3d 60d7 e9bd
000000e0: c675 e5bd 3a01 d1bd 4c18 0dbd 5277 00be
000000f0: b4fd e13d d5ae 86be 10ad 4abe 8000 b53d
00000100: f4fe aa3b 4f97 1fbd 8ff7 1d3c 45a9 8f3c
00000110: e68d 083e 1225 403b 7a78 f23c 00c1 083e
00000120: 5637 f23c 82d3 043e afa5 5c3e d171 143c
00000130: b458 05bc 4f5a b13d 5fd4 5a3c 51e2 043d
00000140: bbd5 45be ff4a 7cbd 7299 88bd f022 8fbd
00000150: 9c7e d6bd 5847 0abe a76b 5dbd f054 dbbd
00000160: cbf0 1b3d 4a2f a53d bc70 623c f27a 443e
00000170: 13cc d33d 657c fa3d b69b d4bd 977f 773b
00000180: cc51 7fbe 0c3c 483d 9460 d83d b425 53bd
00000190: f9d7 c1bd b35f bd3d a841 ffbc b705 85be
000001a0: 9d01 d7bd b06c b4bd ed21 42be d0c6 3a3c
000001b0: fefc fcbd ce50 81ba 090f b5bd 1b9a 0d3e
000001c0: ab3b f2bd cfe2 a8bd 8fdc dd3d 8b19 10bd
000001d0: 545c 793c 1cca 93bd f0f1 6f3d f621 9a3d
000001e0: 803c 56bc d73d 173d 5649 22be 9900 7b3e
000001f0: a676 3ebe c41a cc3c 8850 103e 93d4 4fbe
00000200: 45c5 f53d b0c0 fa3c e7de a2bd 1a70 1abd
00000210: 85e8 17be 7885 17be 5caf 613e ccd7 1f3c
00000220: 60a9 4e3e 5ddf 84bd 609b bcbd 84f2 1e3e
00000230: 4bfb 7bbd c349 d7bd 6b7b d63d d7a1 e73d

BCBlocks.1.1.f2.0.block.0.weight f4 [12, 1, 3, 1]
-0.119734734 0.32531717 -0.39709485 -0.5127658 -0.2551287 0.42037708 -0.059176173 0.11547969
0.19524059 -0.27573502 -0.26758006 0.20466167 0.30366656 -0.054128733 0.24605416 -0.2960393
-0.21450004 -0.015025929 -0.36406672 -0.046637002 0.07602368 0.38162693 0.087861076 -0.06192678
-0.38006958 0.17822625 0.20506041 -0.2571129 0.17101292 0.32084256 -0.26671773 0.41490972
-0.010615226 -0.34788185 -0.33154342 0.27534425
00000000: 7c37 f5bd f98f a63e 0450 cbbe 9f44 03bf
00000010: 3ba0 82be aa3b d73e b762 72bd 9e80 ec3d
00000020: 26ed 473e 242d 8dbe 4100 89be d492 513e
00000030: 2f7a 9b3e 17b6 5dbd 9ff5 7b3e 7792 97be
00000040: e6a5 5bbe 502f 76bc f466 babe 7106 3fbd
00000050: 4eb2 9b3d 9b64 c33e 82f0 b33d efa6 7dbd
00000060: 7b98 c2be f180 363e 5bfb 513e 4da4 83be
00000070: 031e 2f3e 7a45 a43e 3a8f 88be 0c6f d43e
00000080: 7ceb 2dbc 921d b2be 0fc0 a9be ecf9 8c3e

BCBlocks.1.1.f2.0.block.1.ssnorm.weight f4 [60]
0.15323767 0.15584213 0.071073875 0.2336077 0.31372443 0.47915447 0.3305826 0.30566412
0.3334982 0.37908742 0.294144 0.17313524 0.14644086 0.14146867 0.25702494 0.12231426
0.28990403 0.45196393 0.32427278 0.3391735 0.1228541 0.2749134 0.20700033 0.08334864
0.30347416 0.4297452 0.33320773 0.32212383 0.31068262 0.42949367 0.17204829 0.12338106
0.24225965 0.28904313 0.2957505 -0.19596791 0.3185194 0.18938194 0.0010196937 0.217661
-0.084976785 0.18426888 0.3563096 0.10890397 0.24985026 0.015846176 0.035736423 0.21428874
0.3801881 0.18345228 0.25807884 0.06514442 0.05080659 0.06263917 0.16444704 0.31400013
0.38392442 0.4016785 0.27773413 0.23628673
00000000: 56ea 1c3e 1495 1f3e 2e8f 913d db36 6f3e
00000010: 7da0 a03e bc53 f53e 1f42 a93e 0280 9c3e
00000020: 47c0 aa3e bf17 c23e 0b9a 963e 5d4a 313e
00000030: 98f4 153e 2add 103e c698 833e e67f fa3d
00000040: 4d6e 943e d167 e73e 1507 a63e 26a8 ad3e
00000050: ee9a fb3d 73c1 8c3e e5f7 533e b1b2 aa3d
00000060: f760 9b3e 9007 dc3e 349a aa3e 6aed a43e
00000070: cb11 9f3e 98e6 db3e 6d2d 303e 36af fc3d
00000080: ea12 783e 76fd 933e 9c6c 973e d0ab 48be
00000090: fa14 a33e 57ed 413e 3ea7 853a 86e2 5e3e
000000a0: 4f08 aebd fbb0 3c3e 366e b63e 0b09 df3d
000000b0: bfd8 7f3e d7cf 813c 5b60 123d 826e 5b3e
000000c0: 04a8 c23e eada 3b3e e922 843e 706a 853d
000000d0: 921a 503d f748 803d ce64 283e a0c4 a03e
000000e0: be91 c43e cea8 cd3e 2b33 8e3e 26f5 713e

BCBlocks.1.1.f2.0.block.1.ssnorm.bias f4 [60]
-0.050272435 0.032785457 -0.027705675 -0.08534146 0.1381705 0.3726252 -0.23510838 0.053939503
0.26385412 0.20503959 -0.019877754 -0.09763726 -0.06404077 0.042740434 -0.06054163 0.009498612
0.07564553 0.2910721 -0.0017818571 -0.025579577 0.10633493 0.13100283 0.12134022 0.02762038
-0.12524594 0.008572643 0.27129555 -0.00030161705 0.02672466 0.034075674 0.16155902 0.08721412
0.082793735 0.0004097999 -0.1072002 0.019648748 0.068902485 0.14855453 0.006117171 -0.02729623
-0.1976268 -0.15328328 -0.010862947 -0.0151278395 -0.021490254 0.060243413 -0.08112716 0.00081546255
0.12020257 -0.14408909 0.22372574 -0.0013582256 0.16357556 0.12406714 0.1415602 0.10768633
-0.21130836 -0.28596872 0.18105608 -0.037137724
00000000: 78ea 4dbd 0b4a 063d 03f7 e2bc 81c7 aebd
00000010: 917c 0d3e bbc8 be3e 40c0 70be abef 5c3d
00000020: e317 873e e6f5 513e acd6 a2bc 0bf6 c7bd
00000030: cf27 83bd 9810 2f3d 80fa 77bd 11a0 1b3c
00000040: 0bec 9a3d 6707 953e 348d e9ba 438c d1bc
00000050: 21c6 d93d 9b25 063e 3981 f83d 2344 e23c
00000060: 7940 00be 4574 0c3c 40e7 8a3e 5b22 9eb9
00000070: aded da3c ef92 0b3d ba6f 253e 519d b23d
00000080: c38f a93d 69da d639 c78b dbbd 69f6 a03c
00000090: bf1c 8d3d ae1e 183e 8d72 c83b 589c dfbc
000000a0: ae5e 4abe 4bf6 1cbe 81fa 31bc c2da 77bc
000000b0: 540c b0bc ccc1 763d ff25 a6bd c4c4 553a
000000c0: c42c f63d 178c 13be 5c18 653e 7d06 b2ba
000000d0: 5a80 273e ea16 fe3d 28f5 103e a78a dc3d
000000e0: 3861 58be 7e6a 92be c466 393e ba1d 18bd

BCBlocks.1.1.f2.0.block.1.ssnorm.running_mean f4 [60]
0.0020412887 -0.049572043 0.004248515 -0.06488656 0.025544772 0.08306884 -0.124019615 -0.09030401
-0.025903089 -0.13118409 0.027562736 0.055049185 0.06701399 0.07346262 0.032828704 -0.03302838
-0.06993536 -0.10013271 -0.066871844 -0.06363445 0.06284262 0.11424819 0.061769504 0.020380786
0.027852125 -0.04145181 -0.057513855 -0.11225097 -0.07834662 -0.106164865 -0.008657426 -0.0505967
-0.14307193 -0.095169686 -0.011357946 0.04694364 0.058475483 0.1020842 0.07354571 0.08130159
0.021096244 0.02289398 -0.009458019 -0.023644172 -0.009558964 0.08810101 0.0696048 0.02321249
-0.0012641549 0.0598118 0.10833904 0.03010594 0.05877314 -0.043177266 0.024218604 -0.01697115
-0.008230106 -0.12106962 -0.1266124 -0.034329522
00000000: 24c7 053b 0e0c 4bbd 2037 8b3b 3fe3 84bd
00000010: 4543 d13c ff1f aa3d fffd fdbd 4ff1 b8bd
00000020: b732 d4bc 1f55 06be 3fcb e13c 417b 613d
00000030: a13e 893d 9273 963d 6477 063d c448 07bd
00000040: 453a 8fbd 6112 cdbd 1bf4 88bd c752 82bd
00000050: a2b3 803d f4fa e93d 0502 7d3d 9bf5 a63c
00000060: 242a e43c 60c9 29bd a693 6bbd d6e3 e5bd
00000070: 3174 a0bd f76c d9bd e0d7 0dbc 7c3e 4fbd
00000080: 7381 12be 53e8 c2bd ae16 3abc f947 403d
00000090: fd83 6f3d 8511 d13d 229f 963d 7381 a63d
000000a0: 08d2 ac3c 288c bb3c cff5 1abc 6cb1 c1bc
000000b0: 339d 1cbc 4d6e b43d f68c 8e3d 1f28 be3c
000000c0: 00b2 a5ba 38fd 743d dce0 dd3d bba0 f63c
000000d0: 1bbc 703d a5da 30bd 1866 c63c 1507 8bbc
000000e0: 91d7 06bc 59f3 f7bd aea6 01be 1d9d 0cbd

BCBlocks.1.1.f2.0.block.1.ssnorm.running_var f4 [60]
0.0026817322 0.00872638 0.006326104 0.025526863 0.0141747305 0.020157382 0.04661675 0.035804078
0.0165467 0.045561753 0.0005303689 0.0007990267 0.000508754 0.0004646922 0.0008953223 0.0020502352
0.009397586 0.009700375 0.006102856 0.004919883 0.0030000792 0.009719094 0.005741301 0.0023614855
0.00541472 0.0020254417 0.0050310856 0.004880089 0.0034492721 0.004639379 0.00086636137 0.0037341572
0.0061590704 0.008402083 0.0008023422 0.0030191138 0.0027091366 0.0049772603 0.0049590454 0.004134274
0.00071687705 0.0028552064 0.0022620093 0.0016286346 0.0005634987 0.008420108 0.018760366 0.008856428
0.0053617773 0.0053609395 0.024038063 0.018574167 0.011378035 0.0033753968 0.005699014 0.0019849057
0.004226495 0.014103318 0.009006131 0.0033730883
00000000: 00c0 2f3b 17f9 0e3c 354b cf3b b61d d13c
00000010: 213d 683c 1821 a53c 35f1 3e3d 4ca7 123d
00000020: f28c 873c f69e 3a3d 7408 0b3a c675 513a
00000030: e75d 053a eea1 f339 10b4 6a3a 3d5d 063b
00000040: 55f8 193c 52ee 1e3c 77fa c73b f836 a13b
00000050: fa9c 443b d63c 1f3c 8621 bc3b 27c3 1a3b
00000060: f76d b13b 46bd 043b cedb a43b 27e9 9f3b
00000070: 2f0d 623b ef05 983b 871c 633a c3b8 743b
00000080: 07d2 c93b e4a8 093c 4654 523a 53dc 453b
00000090: c58b 313b 4918 a33b 7d7f a23b ce78 873b
000000a0: ceec 3b3a 6a1e 3b3b 383e 143b e977 d53a
000000b0: c2b7 133a 7ef4 093c 57af 993c 8d1a 113c
000000c0: d9b1 af3b d2aa af3b 79eb c43c da28 983c
000000d0: f06a 3a3c c335 5d3b cbbe ba3b 3115 023b
000000e0: 697e 8a3b 9a11 673c 748e 133c 080f 5d3b

BCBlocks.1.1.f1.0.block.0.weight f4 [12, 1, 1, 3]
0.13536347 0.18008736 -0.24258016 -0.16846722 -0.14986342 0.23751386 -0.35866368 0.13966396
0.21296132 0.24954762 0.007051271 -0.22393663 0.123698704 0.2033484 -0.08580767 0.13657577
0.05449722 -0.32648683 -0.2429733 0.094239764 0.17686231 0.22367987 -0.011858014 -0.15863766
-0.048587155 -0.17481937 -0.0052697225 -0.18236092 -0.095023215 0.22173615 0.14450242 0.09884761
-0.31676337 -0.23784 0.1572972 -0.043594815
00000000: b99c 0a3e d268 383e ef66 78be ac82 2cbe
00000010: cc75 19be d536 733e c4a2 b7be 1204 0f3e
00000020: 8812 5a3e 6989 7f3e 590e e73b a54f 65be
00000030: bf55 fd3d 903a 503e efbb afbd 85da 0b3e
00000040: 7a38 5f3d 4829 a7be fecd 78be c700 c13d
00000050: 651b 353e 560c 653e 1e48 42bc e971 22be
00000060: 5303 47bd d903 33be a3ad acbb d2bc 3abe
00000070: 889b c2bd cd0e 633e 71f8 133e 9e70 ca3d
00000080: cf2e a2be 548c 73be 8412 213e 7a90 32bd

BCBlocks.1.1.f1.0.block.1.weight f4 [12]
0.55957335 0.37564415 0.36164778 0.32280877 0.34262505 0.3089772 0.37303796 0.27290964
0.2667486 0.29562676 0.46147043 0.31276968
00000000: 3340 0f3f 6e54 c03e e629 b93e 3147 a53e
00000010: 8d6c af3e 4232 9e3e d5fe be3e d0ba 8b3e
00000020: 4693 883e 645c 973e da45 ec3e 5923 a03e
